…
local rank 1 / global rank 1 successfully build val and test dataset
local rank 0 / global rank 0 successfully build val and test dataset
[2023-06-22 00:07:39 maxvit_tiny_tf_224.in1k](main.py 91): INFO Creating model:maxvit/maxvit_tiny_tf_224.in1k
[2023-06-22 00:07:41 maxvit_tiny_tf_224.in1k](main.py 94): INFO MaxVitTransformer(
  (model): MaxxVit(
    (stem): Stem(
      (conv1): Conv2dSame(3, 64, kernel_size=(3, 3), stride=(2, 2))
      (norm1): BatchNormAct2d(
        64, eps=0.001, momentum=0.1, affine=True, track_running_stats=True
        (drop): Identity()
        (act): GELUTanh()
      )
      (conv2): Conv2d(64, 64, kernel_size=(3, 3), stride=(1, 1), padding=(1, 1))
    )
    (stages): Sequential(
      (0): MaxxVitStage(
        (blocks): Sequential(
          (0): MaxxVitBlock(
            (conv): MbConvBlock(
              (shortcut): Downsample2d(
                (pool): AvgPool2dSame(kernel_size=(2, 2), stride=(2, 2), padding=(0, 0))
                (expand): Identity()
              )
              (pre_norm): BatchNormAct2d(
                64, eps=0.001, momentum=0.1, affine=True, track_running_stats=True
                (drop): Identity()
                (act): Identity()
              )
              (down): Identity()
              (conv1_1x1): Conv2d(64, 256, kernel_size=(1, 1), stride=(1, 1), bias=False)
              (norm1): BatchNormAct2d(
                256, eps=0.001, momentum=0.1, affine=True, track_running_stats=True
                (drop): Identity()
                (act): GELUTanh()
              )
              (conv2_kxk): Conv2dSame(256, 256, kernel_size=(3, 3), stride=(2, 2), groups=256, bias=False)
              (norm2): BatchNormAct2d(
                256, eps=0.001, momentum=0.1, affine=True, track_running_stats=True
                (drop): Identity()
                (act): GELUTanh()
              )
              (se): SEModule(
                (fc1): Conv2d(256, 16, kernel_size=(1, 1), stride=(1, 1))
                (bn): Identity()
                (act): SiLU(inplace=True)
                (fc2): Conv2d(16, 256, kernel_size=(1, 1), stride=(1, 1))
                (gate): Sigmoid()
              )
              (conv3_1x1): Conv2d(256, 64, kernel_size=(1, 1), stride=(1, 1))
              (drop_path): Identity()
            )
            (attn_block): PartitionAttentionCl(
              (norm1): LayerNorm((64,), eps=1e-05, elementwise_affine=True)
              (attn): AttentionCl(
                (qkv): Linear(in_features=64, out_features=192, bias=True)
                (rel_pos): RelPosBiasTf()
                (attn_drop): Dropout(p=0.0, inplace=False)
                (proj): Linear(in_features=64, out_features=64, bias=True)
                (proj_drop): Dropout(p=0.0, inplace=False)
              )
              (ls1): Identity()
              (drop_path1): Identity()
              (norm2): LayerNorm((64,), eps=1e-05, elementwise_affine=True)
              (mlp): Mlp(
                (fc1): Linear(in_features=64, out_features=256, bias=True)
                (act): GELUTanh()
                (drop1): Dropout(p=0.0, inplace=False)
                (norm): Identity()
                (fc2): Linear(in_features=256, out_features=64, bias=True)
                (drop2): Dropout(p=0.0, inplace=False)
              )
              (ls2): Identity()
              (drop_path2): Identity()
            )
            (attn_grid): PartitionAttentionCl(
              (norm1): LayerNorm((64,), eps=1e-05, elementwise_affine=True)
              (attn): AttentionCl(
                (qkv): Linear(in_features=64, out_features=192, bias=True)
                (rel_pos): RelPosBiasTf()
                (attn_drop): Dropout(p=0.0, inplace=False)
                (proj): Linear(in_features=64, out_features=64, bias=True)
                (proj_drop): Dropout(p=0.0, inplace=False)
              )
              (ls1): Identity()
              (drop_path1): Identity()
              (norm2): LayerNorm((64,), eps=1e-05, elementwise_affine=True)
              (mlp): Mlp(
                (fc1): Linear(in_features=64, out_features=256, bias=True)
                (act): GELUTanh()
                (drop1): Dropout(p=0.0, inplace=False)
                (norm): Identity()
                (fc2): Linear(in_features=256, out_features=64, bias=True)
                (drop2): Dropout(p=0.0, inplace=False)
              )
              (ls2): Identity()
              (drop_path2): Identity()
            )
          )
          (1): MaxxVitBlock(
            (conv): MbConvBlock(
              (shortcut): Identity()
              (pre_norm): BatchNormAct2d(
                64, eps=0.001, momentum=0.1, affine=True, track_running_stats=True
                (drop): Identity()
                (act): Identity()
              )
              (down): Identity()
              (conv1_1x1): Conv2d(64, 256, kernel_size=(1, 1), stride=(1, 1), bias=False)
              (norm1): BatchNormAct2d(
                256, eps=0.001, momentum=0.1, affine=True, track_running_stats=True
                (drop): Identity()
                (act): GELUTanh()
              )
              (conv2_kxk): Conv2d(256, 256, kernel_size=(3, 3), stride=(1, 1), padding=(1, 1), groups=256, bias=False)
              (norm2): BatchNormAct2d(
                256, eps=0.001, momentum=0.1, affine=True, track_running_stats=True
                (drop): Identity()
                (act): GELUTanh()
              )
              (se): SEModule(
                (fc1): Conv2d(256, 16, kernel_size=(1, 1), stride=(1, 1))
                (bn): Identity()
                (act): SiLU(inplace=True)
                (fc2): Conv2d(16, 256, kernel_size=(1, 1), stride=(1, 1))
                (gate): Sigmoid()
              )
              (conv3_1x1): Conv2d(256, 64, kernel_size=(1, 1), stride=(1, 1))
              (drop_path): Identity()
            )
            (attn_block): PartitionAttentionCl(
              (norm1): LayerNorm((64,), eps=1e-05, elementwise_affine=True)
              (attn): AttentionCl(
                (qkv): Linear(in_features=64, out_features=192, bias=True)
                (rel_pos): RelPosBiasTf()
                (attn_drop): Dropout(p=0.0, inplace=False)
                (proj): Linear(in_features=64, out_features=64, bias=True)
                (proj_drop): Dropout(p=0.0, inplace=False)
              )
              (ls1): Identity()
              (drop_path1): Identity()
              (norm2): LayerNorm((64,), eps=1e-05, elementwise_affine=True)
              (mlp): Mlp(
                (fc1): Linear(in_features=64, out_features=256, bias=True)
                (act): GELUTanh()
                (drop1): Dropout(p=0.0, inplace=False)
                (norm): Identity()
                (fc2): Linear(in_features=256, out_features=64, bias=True)
                (drop2): Dropout(p=0.0, inplace=False)
              )
              (ls2): Identity()
              (drop_path2): Identity()
            )
            (attn_grid): PartitionAttentionCl(
              (norm1): LayerNorm((64,), eps=1e-05, elementwise_affine=True)
              (attn): AttentionCl(
                (qkv): Linear(in_features=64, out_features=192, bias=True)
                (rel_pos): RelPosBiasTf()
                (attn_drop): Dropout(p=0.0, inplace=False)
                (proj): Linear(in_features=64, out_features=64, bias=True)
                (proj_drop): Dropout(p=0.0, inplace=False)
              )
              (ls1): Identity()
              (drop_path1): Identity()
              (norm2): LayerNorm((64,), eps=1e-05, elementwise_affine=True)
              (mlp): Mlp(
                (fc1): Linear(in_features=64, out_features=256, bias=True)
                (act): GELUTanh()
                (drop1): Dropout(p=0.0, inplace=False)
                (norm): Identity()
                (fc2): Linear(in_features=256, out_features=64, bias=True)
                (drop2): Dropout(p=0.0, inplace=False)
              )
              (ls2): Identity()
              (drop_path2): Identity()
            )
          )
        )
      )
      (1): MaxxVitStage(
        (blocks): Sequential(
          (0): MaxxVitBlock(
            (conv): MbConvBlock(
              (shortcut): Downsample2d(
                (pool): AvgPool2dSame(kernel_size=(2, 2), stride=(2, 2), padding=(0, 0))
                (expand): Conv2d(64, 128, kernel_size=(1, 1), stride=(1, 1))
              )
              (pre_norm): BatchNormAct2d(
                64, eps=0.001, momentum=0.1, affine=True, track_running_stats=True
                (drop): Identity()
                (act): Identity()
              )
              (down): Identity()
              (conv1_1x1): Conv2d(64, 512, kernel_size=(1, 1), stride=(1, 1), bias=False)
              (norm1): BatchNormAct2d(
                512, eps=0.001, momentum=0.1, affine=True, track_running_stats=True
                (drop): Identity()
                (act): GELUTanh()
              )
              (conv2_kxk): Conv2dSame(512, 512, kernel_size=(3, 3), stride=(2, 2), groups=512, bias=False)
              (norm2): BatchNormAct2d(
                512, eps=0.001, momentum=0.1, affine=True, track_running_stats=True
                (drop): Identity()
                (act): GELUTanh()
              )
              (se): SEModule(
                (fc1): Conv2d(512, 32, kernel_size=(1, 1), stride=(1, 1))
                (bn): Identity()
                (act): SiLU(inplace=True)
                (fc2): Conv2d(32, 512, kernel_size=(1, 1), stride=(1, 1))
                (gate): Sigmoid()
              )
              (conv3_1x1): Conv2d(512, 128, kernel_size=(1, 1), stride=(1, 1))
              (drop_path): Identity()
            )
            (attn_block): PartitionAttentionCl(
              (norm1): LayerNorm((128,), eps=1e-05, elementwise_affine=True)
              (attn): AttentionCl(
                (qkv): Linear(in_features=128, out_features=384, bias=True)
                (rel_pos): RelPosBiasTf()
                (attn_drop): Dropout(p=0.0, inplace=False)
                (proj): Linear(in_features=128, out_features=128, bias=True)
                (proj_drop): Dropout(p=0.0, inplace=False)
              )
              (ls1): Identity()
              (drop_path1): Identity()
              (norm2): LayerNorm((128,), eps=1e-05, elementwise_affine=True)
              (mlp): Mlp(
                (fc1): Linear(in_features=128, out_features=512, bias=True)
                (act): GELUTanh()
                (drop1): Dropout(p=0.0, inplace=False)
                (norm): Identity()
                (fc2): Linear(in_features=512, out_features=128, bias=True)
                (drop2): Dropout(p=0.0, inplace=False)
              )
              (ls2): Identity()
              (drop_path2): Identity()
            )
            (attn_grid): PartitionAttentionCl(
              (norm1): LayerNorm((128,), eps=1e-05, elementwise_affine=True)
              (attn): AttentionCl(
                (qkv): Linear(in_features=128, out_features=384, bias=True)
                (rel_pos): RelPosBiasTf()
                (attn_drop): Dropout(p=0.0, inplace=False)
                (proj): Linear(in_features=128, out_features=128, bias=True)
                (proj_drop): Dropout(p=0.0, inplace=False)
              )
              (ls1): Identity()
              (drop_path1): Identity()
              (norm2): LayerNorm((128,), eps=1e-05, elementwise_affine=True)
              (mlp): Mlp(
                (fc1): Linear(in_features=128, out_features=512, bias=True)
                (act): GELUTanh()
                (drop1): Dropout(p=0.0, inplace=False)
                (norm): Identity()
                (fc2): Linear(in_features=512, out_features=128, bias=True)
                (drop2): Dropout(p=0.0, inplace=False)
              )
              (ls2): Identity()
              (drop_path2): Identity()
            )
          )
          (1): MaxxVitBlock(
            (conv): MbConvBlock(
              (shortcut): Identity()
              (pre_norm): BatchNormAct2d(
                128, eps=0.001, momentum=0.1, affine=True, track_running_stats=True
                (drop): Identity()
                (act): Identity()
              )
              (down): Identity()
              (conv1_1x1): Conv2d(128, 512, kernel_size=(1, 1), stride=(1, 1), bias=False)
              (norm1): BatchNormAct2d(
                512, eps=0.001, momentum=0.1, affine=True, track_running_stats=True
                (drop): Identity()
                (act): GELUTanh()
              )
              (conv2_kxk): Conv2d(512, 512, kernel_size=(3, 3), stride=(1, 1), padding=(1, 1), groups=512, bias=False)
              (norm2): BatchNormAct2d(
                512, eps=0.001, momentum=0.1, affine=True, track_running_stats=True
                (drop): Identity()
                (act): GELUTanh()
              )
              (se): SEModule(
                (fc1): Conv2d(512, 32, kernel_size=(1, 1), stride=(1, 1))
                (bn): Identity()
                (act): SiLU(inplace=True)
                (fc2): Conv2d(32, 512, kernel_size=(1, 1), stride=(1, 1))
                (gate): Sigmoid()
              )
              (conv3_1x1): Conv2d(512, 128, kernel_size=(1, 1), stride=(1, 1))
              (drop_path): Identity()
            )
            (attn_block): PartitionAttentionCl(
              (norm1): LayerNorm((128,), eps=1e-05, elementwise_affine=True)
              (attn): AttentionCl(
                (qkv): Linear(in_features=128, out_features=384, bias=True)
                (rel_pos): RelPosBiasTf()
                (attn_drop): Dropout(p=0.0, inplace=False)
                (proj): Linear(in_features=128, out_features=128, bias=True)
                (proj_drop): Dropout(p=0.0, inplace=False)
              )
              (ls1): Identity()
              (drop_path1): Identity()
              (norm2): LayerNorm((128,), eps=1e-05, elementwise_affine=True)
              (mlp): Mlp(
                (fc1): Linear(in_features=128, out_features=512, bias=True)
                (act): GELUTanh()
                (drop1): Dropout(p=0.0, inplace=False)
                (norm): Identity()
                (fc2): Linear(in_features=512, out_features=128, bias=True)
                (drop2): Dropout(p=0.0, inplace=False)
              )
              (ls2): Identity()
              (drop_path2): Identity()
            )
            (attn_grid): PartitionAttentionCl(
              (norm1): LayerNorm((128,), eps=1e-05, elementwise_affine=True)
              (attn): AttentionCl(
                (qkv): Linear(in_features=128, out_features=384, bias=True)
                (rel_pos): RelPosBiasTf()
                (attn_drop): Dropout(p=0.0, inplace=False)
                (proj): Linear(in_features=128, out_features=128, bias=True)
                (proj_drop): Dropout(p=0.0, inplace=False)
              )
              (ls1): Identity()
              (drop_path1): Identity()
              (norm2): LayerNorm((128,), eps=1e-05, elementwise_affine=True)
              (mlp): Mlp(
                (fc1): Linear(in_features=128, out_features=512, bias=True)
                (act): GELUTanh()
                (drop1): Dropout(p=0.0, inplace=False)
                (norm): Identity()
                (fc2): Linear(in_features=512, out_features=128, bias=True)
                (drop2): Dropout(p=0.0, inplace=False)
              )
              (ls2): Identity()
              (drop_path2): Identity()
            )
          )
        )
      )
      (2): MaxxVitStage(
        (blocks): Sequential(
          (0): MaxxVitBlock(
            (conv): MbConvBlock(
              (shortcut): Downsample2d(
                (pool): AvgPool2dSame(kernel_size=(2, 2), stride=(2, 2), padding=(0, 0))
                (expand): Conv2d(128, 256, kernel_size=(1, 1), stride=(1, 1))
              )
              (pre_norm): BatchNormAct2d(
                128, eps=0.001, momentum=0.1, affine=True, track_running_stats=True
                (drop): Identity()
                (act): Identity()
              )
              (down): Identity()
              (conv1_1x1): Conv2d(128, 1024, kernel_size=(1, 1), stride=(1, 1), bias=False)
              (norm1): BatchNormAct2d(
                1024, eps=0.001, momentum=0.1, affine=True, track_running_stats=True
                (drop): Identity()
                (act): GELUTanh()
              )
              (conv2_kxk): Conv2dSame(1024, 1024, kernel_size=(3, 3), stride=(2, 2), groups=1024, bias=False)
              (norm2): BatchNormAct2d(
                1024, eps=0.001, momentum=0.1, affine=True, track_running_stats=True
                (drop): Identity()
                (act): GELUTanh()
              )
              (se): SEModule(
                (fc1): Conv2d(1024, 64, kernel_size=(1, 1), stride=(1, 1))
                (bn): Identity()
                (act): SiLU(inplace=True)
                (fc2): Conv2d(64, 1024, kernel_size=(1, 1), stride=(1, 1))
                (gate): Sigmoid()
              )
              (conv3_1x1): Conv2d(1024, 256, kernel_size=(1, 1), stride=(1, 1))
              (drop_path): Identity()
            )
            (attn_block): PartitionAttentionCl(
              (norm1): LayerNorm((256,), eps=1e-05, elementwise_affine=True)
              (attn): AttentionCl(
                (qkv): Linear(in_features=256, out_features=768, bias=True)
                (rel_pos): RelPosBiasTf()
                (attn_drop): Dropout(p=0.0, inplace=False)
                (proj): Linear(in_features=256, out_features=256, bias=True)
                (proj_drop): Dropout(p=0.0, inplace=False)
              )
              (ls1): Identity()
              (drop_path1): Identity()
              (norm2): LayerNorm((256,), eps=1e-05, elementwise_affine=True)
              (mlp): Mlp(
                (fc1): Linear(in_features=256, out_features=1024, bias=True)
                (act): GELUTanh()
                (drop1): Dropout(p=0.0, inplace=False)
                (norm): Identity()
                (fc2): Linear(in_features=1024, out_features=256, bias=True)
                (drop2): Dropout(p=0.0, inplace=False)
              )
              (ls2): Identity()
              (drop_path2): Identity()
            )
            (attn_grid): PartitionAttentionCl(
              (norm1): LayerNorm((256,), eps=1e-05, elementwise_affine=True)
              (attn): AttentionCl(
                (qkv): Linear(in_features=256, out_features=768, bias=True)
                (rel_pos): RelPosBiasTf()
                (attn_drop): Dropout(p=0.0, inplace=False)
                (proj): Linear(in_features=256, out_features=256, bias=True)
                (proj_drop): Dropout(p=0.0, inplace=False)
              )
              (ls1): Identity()
              (drop_path1): Identity()
              (norm2): LayerNorm((256,), eps=1e-05, elementwise_affine=True)
              (mlp): Mlp(
                (fc1): Linear(in_features=256, out_features=1024, bias=True)
                (act): GELUTanh()
                (drop1): Dropout(p=0.0, inplace=False)
                (norm): Identity()
                (fc2): Linear(in_features=1024, out_features=256, bias=True)
                (drop2): Dropout(p=0.0, inplace=False)
              )
              (ls2): Identity()
              (drop_path2): Identity()
            )
          )
          (1): MaxxVitBlock(
            (conv): MbConvBlock(
              (shortcut): Identity()
              (pre_norm): BatchNormAct2d(
                256, eps=0.001, momentum=0.1, affine=True, track_running_stats=True
                (drop): Identity()
                (act): Identity()
              )
              (down): Identity()
              (conv1_1x1): Conv2d(256, 1024, kernel_size=(1, 1), stride=(1, 1), bias=False)
              (norm1): BatchNormAct2d(
                1024, eps=0.001, momentum=0.1, affine=True, track_running_stats=True
                (drop): Identity()
                (act): GELUTanh()
              )
              (conv2_kxk): Conv2d(1024, 1024, kernel_size=(3, 3), stride=(1, 1), padding=(1, 1), groups=1024, bias=False)
              (norm2): BatchNormAct2d(
                1024, eps=0.001, momentum=0.1, affine=True, track_running_stats=True
                (drop): Identity()
                (act): GELUTanh()
              )
              (se): SEModule(
                (fc1): Conv2d(1024, 64, kernel_size=(1, 1), stride=(1, 1))
                (bn): Identity()
                (act): SiLU(inplace=True)
                (fc2): Conv2d(64, 1024, kernel_size=(1, 1), stride=(1, 1))
                (gate): Sigmoid()
              )
              (conv3_1x1): Conv2d(1024, 256, kernel_size=(1, 1), stride=(1, 1))
              (drop_path): Identity()
            )
            (attn_block): PartitionAttentionCl(
              (norm1): LayerNorm((256,), eps=1e-05, elementwise_affine=True)
              (attn): AttentionCl(
                (qkv): Linear(in_features=256, out_features=768, bias=True)
                (rel_pos): RelPosBiasTf()
                (attn_drop): Dropout(p=0.0, inplace=False)
                (proj): Linear(in_features=256, out_features=256, bias=True)
                (proj_drop): Dropout(p=0.0, inplace=False)
              )
              (ls1): Identity()
              (drop_path1): Identity()
              (norm2): LayerNorm((256,), eps=1e-05, elementwise_affine=True)
              (mlp): Mlp(
                (fc1): Linear(in_features=256, out_features=1024, bias=True)
                (act): GELUTanh()
                (drop1): Dropout(p=0.0, inplace=False)
                (norm): Identity()
                (fc2): Linear(in_features=1024, out_features=256, bias=True)
                (drop2): Dropout(p=0.0, inplace=False)
              )
              (ls2): Identity()
              (drop_path2): Identity()
            )
            (attn_grid): PartitionAttentionCl(
              (norm1): LayerNorm((256,), eps=1e-05, elementwise_affine=True)
              (attn): AttentionCl(
                (qkv): Linear(in_features=256, out_features=768, bias=True)
                (rel_pos): RelPosBiasTf()
                (attn_drop): Dropout(p=0.0, inplace=False)
                (proj): Linear(in_features=256, out_features=256, bias=True)
                (proj_drop): Dropout(p=0.0, inplace=False)
              )
              (ls1): Identity()
              (drop_path1): Identity()
              (norm2): LayerNorm((256,), eps=1e-05, elementwise_affine=True)
              (mlp): Mlp(
                (fc1): Linear(in_features=256, out_features=1024, bias=True)
                (act): GELUTanh()
                (drop1): Dropout(p=0.0, inplace=False)
                (norm): Identity()
                (fc2): Linear(in_features=1024, out_features=256, bias=True)
                (drop2): Dropout(p=0.0, inplace=False)
              )
              (ls2): Identity()
              (drop_path2): Identity()
            )
          )
          (2): MaxxVitBlock(
            (conv): MbConvBlock(
              (shortcut): Identity()
              (pre_norm): BatchNormAct2d(
                256, eps=0.001, momentum=0.1, affine=True, track_running_stats=True
                (drop): Identity()
                (act): Identity()
              )
              (down): Identity()
              (conv1_1x1): Conv2d(256, 1024, kernel_size=(1, 1), stride=(1, 1), bias=False)
              (norm1): BatchNormAct2d(
                1024, eps=0.001, momentum=0.1, affine=True, track_running_stats=True
                (drop): Identity()
                (act): GELUTanh()
              )
              (conv2_kxk): Conv2d(1024, 1024, kernel_size=(3, 3), stride=(1, 1), padding=(1, 1), groups=1024, bias=False)
              (norm2): BatchNormAct2d(
                1024, eps=0.001, momentum=0.1, affine=True, track_running_stats=True
                (drop): Identity()
                (act): GELUTanh()
              )
              (se): SEModule(
                (fc1): Conv2d(1024, 64, kernel_size=(1, 1), stride=(1, 1))
                (bn): Identity()
                (act): SiLU(inplace=True)
                (fc2): Conv2d(64, 1024, kernel_size=(1, 1), stride=(1, 1))
                (gate): Sigmoid()
              )
              (conv3_1x1): Conv2d(1024, 256, kernel_size=(1, 1), stride=(1, 1))
              (drop_path): Identity()
            )
            (attn_block): PartitionAttentionCl(
              (norm1): LayerNorm((256,), eps=1e-05, elementwise_affine=True)
              (attn): AttentionCl(
                (qkv): Linear(in_features=256, out_features=768, bias=True)
                (rel_pos): RelPosBiasTf()
                (attn_drop): Dropout(p=0.0, inplace=False)
                (proj): Linear(in_features=256, out_features=256, bias=True)
                (proj_drop): Dropout(p=0.0, inplace=False)
              )
              (ls1): Identity()
              (drop_path1): Identity()
              (norm2): LayerNorm((256,), eps=1e-05, elementwise_affine=True)
              (mlp): Mlp(
                (fc1): Linear(in_features=256, out_features=1024, bias=True)
                (act): GELUTanh()
                (drop1): Dropout(p=0.0, inplace=False)
                (norm): Identity()
                (fc2): Linear(in_features=1024, out_features=256, bias=True)
                (drop2): Dropout(p=0.0, inplace=False)
              )
              (ls2): Identity()
              (drop_path2): Identity()
            )
            (attn_grid): PartitionAttentionCl(
              (norm1): LayerNorm((256,), eps=1e-05, elementwise_affine=True)
              (attn): AttentionCl(
                (qkv): Linear(in_features=256, out_features=768, bias=True)
                (rel_pos): RelPosBiasTf()
                (attn_drop): Dropout(p=0.0, inplace=False)
                (proj): Linear(in_features=256, out_features=256, bias=True)
                (proj_drop): Dropout(p=0.0, inplace=False)
              )
              (ls1): Identity()
              (drop_path1): Identity()
              (norm2): LayerNorm((256,), eps=1e-05, elementwise_affine=True)
              (mlp): Mlp(
                (fc1): Linear(in_features=256, out_features=1024, bias=True)
                (act): GELUTanh()
                (drop1): Dropout(p=0.0, inplace=False)
                (norm): Identity()
                (fc2): Linear(in_features=1024, out_features=256, bias=True)
                (drop2): Dropout(p=0.0, inplace=False)
              )
              (ls2): Identity()
              (drop_path2): Identity()
            )
          )
          (3): MaxxVitBlock(
            (conv): MbConvBlock(
              (shortcut): Identity()
              (pre_norm): BatchNormAct2d(
                256, eps=0.001, momentum=0.1, affine=True, track_running_stats=True
                (drop): Identity()
                (act): Identity()
              )
              (down): Identity()
              (conv1_1x1): Conv2d(256, 1024, kernel_size=(1, 1), stride=(1, 1), bias=False)
              (norm1): BatchNormAct2d(
                1024, eps=0.001, momentum=0.1, affine=True, track_running_stats=True
                (drop): Identity()
                (act): GELUTanh()
              )
              (conv2_kxk): Conv2d(1024, 1024, kernel_size=(3, 3), stride=(1, 1), padding=(1, 1), groups=1024, bias=False)
              (norm2): BatchNormAct2d(
                1024, eps=0.001, momentum=0.1, affine=True, track_running_stats=True
                (drop): Identity()
                (act): GELUTanh()
              )
              (se): SEModule(
                (fc1): Conv2d(1024, 64, kernel_size=(1, 1), stride=(1, 1))
                (bn): Identity()
                (act): SiLU(inplace=True)
                (fc2): Conv2d(64, 1024, kernel_size=(1, 1), stride=(1, 1))
                (gate): Sigmoid()
              )
              (conv3_1x1): Conv2d(1024, 256, kernel_size=(1, 1), stride=(1, 1))
              (drop_path): Identity()
            )
            (attn_block): PartitionAttentionCl(
              (norm1): LayerNorm((256,), eps=1e-05, elementwise_affine=True)
              (attn): AttentionCl(
                (qkv): Linear(in_features=256, out_features=768, bias=True)
                (rel_pos): RelPosBiasTf()
                (attn_drop): Dropout(p=0.0, inplace=False)
                (proj): Linear(in_features=256, out_features=256, bias=True)
                (proj_drop): Dropout(p=0.0, inplace=False)
              )
              (ls1): Identity()
              (drop_path1): Identity()
              (norm2): LayerNorm((256,), eps=1e-05, elementwise_affine=True)
              (mlp): Mlp(
                (fc1): Linear(in_features=256, out_features=1024, bias=True)
                (act): GELUTanh()
                (drop1): Dropout(p=0.0, inplace=False)
                (norm): Identity()
                (fc2): Linear(in_features=1024, out_features=256, bias=True)
                (drop2): Dropout(p=0.0, inplace=False)
              )
              (ls2): Identity()
              (drop_path2): Identity()
            )
            (attn_grid): PartitionAttentionCl(
              (norm1): LayerNorm((256,), eps=1e-05, elementwise_affine=True)
              (attn): AttentionCl(
                (qkv): Linear(in_features=256, out_features=768, bias=True)
                (rel_pos): RelPosBiasTf()
                (attn_drop): Dropout(p=0.0, inplace=False)
                (proj): Linear(in_features=256, out_features=256, bias=True)
                (proj_drop): Dropout(p=0.0, inplace=False)
              )
              (ls1): Identity()
              (drop_path1): Identity()
              (norm2): LayerNorm((256,), eps=1e-05, elementwise_affine=True)
              (mlp): Mlp(
                (fc1): Linear(in_features=256, out_features=1024, bias=True)
                (act): GELUTanh()
                (drop1): Dropout(p=0.0, inplace=False)
                (norm): Identity()
                (fc2): Linear(in_features=1024, out_features=256, bias=True)
                (drop2): Dropout(p=0.0, inplace=False)
              )
              (ls2): Identity()
              (drop_path2): Identity()
            )
          )
          (4): MaxxVitBlock(
            (conv): MbConvBlock(
              (shortcut): Identity()
              (pre_norm): BatchNormAct2d(
                256, eps=0.001, momentum=0.1, affine=True, track_running_stats=True
                (drop): Identity()
                (act): Identity()
              )
              (down): Identity()
              (conv1_1x1): Conv2d(256, 1024, kernel_size=(1, 1), stride=(1, 1), bias=False)
              (norm1): BatchNormAct2d(
                1024, eps=0.001, momentum=0.1, affine=True, track_running_stats=True
                (drop): Identity()
                (act): GELUTanh()
              )
              (conv2_kxk): Conv2d(1024, 1024, kernel_size=(3, 3), stride=(1, 1), padding=(1, 1), groups=1024, bias=False)
              (norm2): BatchNormAct2d(
                1024, eps=0.001, momentum=0.1, affine=True, track_running_stats=True
                (drop): Identity()
                (act): GELUTanh()
              )
              (se): SEModule(
                (fc1): Conv2d(1024, 64, kernel_size=(1, 1), stride=(1, 1))
                (bn): Identity()
                (act): SiLU(inplace=True)
                (fc2): Conv2d(64, 1024, kernel_size=(1, 1), stride=(1, 1))
                (gate): Sigmoid()
              )
              (conv3_1x1): Conv2d(1024, 256, kernel_size=(1, 1), stride=(1, 1))
              (drop_path): Identity()
            )
            (attn_block): PartitionAttentionCl(
              (norm1): LayerNorm((256,), eps=1e-05, elementwise_affine=True)
              (attn): AttentionCl(
                (qkv): Linear(in_features=256, out_features=768, bias=True)
                (rel_pos): RelPosBiasTf()
                (attn_drop): Dropout(p=0.0, inplace=False)
                (proj): Linear(in_features=256, out_features=256, bias=True)
                (proj_drop): Dropout(p=0.0, inplace=False)
              )
              (ls1): Identity()
              (drop_path1): Identity()
              (norm2): LayerNorm((256,), eps=1e-05, elementwise_affine=True)
              (mlp): Mlp(
                (fc1): Linear(in_features=256, out_features=1024, bias=True)
                (act): GELUTanh()
                (drop1): Dropout(p=0.0, inplace=False)
                (norm): Identity()
                (fc2): Linear(in_features=1024, out_features=256, bias=True)
                (drop2): Dropout(p=0.0, inplace=False)
              )
              (ls2): Identity()
              (drop_path2): Identity()
            )
            (attn_grid): PartitionAttentionCl(
              (norm1): LayerNorm((256,), eps=1e-05, elementwise_affine=True)
              (attn): AttentionCl(
                (qkv): Linear(in_features=256, out_features=768, bias=True)
                (rel_pos): RelPosBiasTf()
                (attn_drop): Dropout(p=0.0, inplace=False)
                (proj): Linear(in_features=256, out_features=256, bias=True)
                (proj_drop): Dropout(p=0.0, inplace=False)
              )
              (ls1): Identity()
              (drop_path1): Identity()
              (norm2): LayerNorm((256,), eps=1e-05, elementwise_affine=True)
              (mlp): Mlp(
                (fc1): Linear(in_features=256, out_features=1024, bias=True)
                (act): GELUTanh()
                (drop1): Dropout(p=0.0, inplace=False)
                (norm): Identity()
                (fc2): Linear(in_features=1024, out_features=256, bias=True)
                (drop2): Dropout(p=0.0, inplace=False)
              )
              (ls2): Identity()
              (drop_path2): Identity()
            )
          )
        )
      )
      (3): MaxxVitStage(
        (blocks): Sequential(
          (0): MaxxVitBlock(
            (conv): MbConvBlock(
              (shortcut): Downsample2d(
                (pool): AvgPool2dSame(kernel_size=(2, 2), stride=(2, 2), padding=(0, 0))
                (expand): Conv2d(256, 512, kernel_size=(1, 1), stride=(1, 1))
              )
              (pre_norm): BatchNormAct2d(
                256, eps=0.001, momentum=0.1, affine=True, track_running_stats=True
                (drop): Identity()
                (act): Identity()
              )
              (down): Identity()
              (conv1_1x1): Conv2d(256, 2048, kernel_size=(1, 1), stride=(1, 1), bias=False)
              (norm1): BatchNormAct2d(
                2048, eps=0.001, momentum=0.1, affine=True, track_running_stats=True
                (drop): Identity()
                (act): GELUTanh()
              )
              (conv2_kxk): Conv2dSame(2048, 2048, kernel_size=(3, 3), stride=(2, 2), groups=2048, bias=False)
              (norm2): BatchNormAct2d(
                2048, eps=0.001, momentum=0.1, affine=True, track_running_stats=True
                (drop): Identity()
                (act): GELUTanh()
              )
              (se): SEModule(
                (fc1): Conv2d(2048, 128, kernel_size=(1, 1), stride=(1, 1))
                (bn): Identity()
                (act): SiLU(inplace=True)
                (fc2): Conv2d(128, 2048, kernel_size=(1, 1), stride=(1, 1))
                (gate): Sigmoid()
              )
              (conv3_1x1): Conv2d(2048, 512, kernel_size=(1, 1), stride=(1, 1))
              (drop_path): Identity()
            )
            (attn_block): PartitionAttentionCl(
              (norm1): LayerNorm((512,), eps=1e-05, elementwise_affine=True)
              (attn): AttentionCl(
                (qkv): Linear(in_features=512, out_features=1536, bias=True)
                (rel_pos): RelPosBiasTf()
                (attn_drop): Dropout(p=0.0, inplace=False)
                (proj): Linear(in_features=512, out_features=512, bias=True)
                (proj_drop): Dropout(p=0.0, inplace=False)
              )
              (ls1): Identity()
              (drop_path1): Identity()
              (norm2): LayerNorm((512,), eps=1e-05, elementwise_affine=True)
              (mlp): Mlp(
                (fc1): Linear(in_features=512, out_features=2048, bias=True)
                (act): GELUTanh()
                (drop1): Dropout(p=0.0, inplace=False)
                (norm): Identity()
                (fc2): Linear(in_features=2048, out_features=512, bias=True)
                (drop2): Dropout(p=0.0, inplace=False)
              )
              (ls2): Identity()
              (drop_path2): Identity()
            )
            (attn_grid): PartitionAttentionCl(
              (norm1): LayerNorm((512,), eps=1e-05, elementwise_affine=True)
              (attn): AttentionCl(
                (qkv): Linear(in_features=512, out_features=1536, bias=True)
                (rel_pos): RelPosBiasTf()
                (attn_drop): Dropout(p=0.0, inplace=False)
                (proj): Linear(in_features=512, out_features=512, bias=True)
                (proj_drop): Dropout(p=0.0, inplace=False)
              )
              (ls1): Identity()
              (drop_path1): Identity()
              (norm2): LayerNorm((512,), eps=1e-05, elementwise_affine=True)
              (mlp): Mlp(
                (fc1): Linear(in_features=512, out_features=2048, bias=True)
                (act): GELUTanh()
                (drop1): Dropout(p=0.0, inplace=False)
                (norm): Identity()
                (fc2): Linear(in_features=2048, out_features=512, bias=True)
                (drop2): Dropout(p=0.0, inplace=False)
              )
              (ls2): Identity()
              (drop_path2): Identity()
            )
          )
          (1): MaxxVitBlock(
            (conv): MbConvBlock(
              (shortcut): Identity()
              (pre_norm): BatchNormAct2d(
                512, eps=0.001, momentum=0.1, affine=True, track_running_stats=True
                (drop): Identity()
                (act): Identity()
              )
              (down): Identity()
              (conv1_1x1): Conv2d(512, 2048, kernel_size=(1, 1), stride=(1, 1), bias=False)
              (norm1): BatchNormAct2d(
                2048, eps=0.001, momentum=0.1, affine=True, track_running_stats=True
                (drop): Identity()
                (act): GELUTanh()
              )
              (conv2_kxk): Conv2d(2048, 2048, kernel_size=(3, 3), stride=(1, 1), padding=(1, 1), groups=2048, bias=False)
              (norm2): BatchNormAct2d(
                2048, eps=0.001, momentum=0.1, affine=True, track_running_stats=True
                (drop): Identity()
                (act): GELUTanh()
              )
              (se): SEModule(
                (fc1): Conv2d(2048, 128, kernel_size=(1, 1), stride=(1, 1))
                (bn): Identity()
                (act): SiLU(inplace=True)
                (fc2): Conv2d(128, 2048, kernel_size=(1, 1), stride=(1, 1))
                (gate): Sigmoid()
              )
              (conv3_1x1): Conv2d(2048, 512, kernel_size=(1, 1), stride=(1, 1))
              (drop_path): Identity()
            )
            (attn_block): PartitionAttentionCl(
              (norm1): LayerNorm((512,), eps=1e-05, elementwise_affine=True)
              (attn): AttentionCl(
                (qkv): Linear(in_features=512, out_features=1536, bias=True)
                (rel_pos): RelPosBiasTf()
                (attn_drop): Dropout(p=0.0, inplace=False)
                (proj): Linear(in_features=512, out_features=512, bias=True)
                (proj_drop): Dropout(p=0.0, inplace=False)
              )
              (ls1): Identity()
              (drop_path1): Identity()
              (norm2): LayerNorm((512,), eps=1e-05, elementwise_affine=True)
              (mlp): Mlp(
                (fc1): Linear(in_features=512, out_features=2048, bias=True)
                (act): GELUTanh()
                (drop1): Dropout(p=0.0, inplace=False)
                (norm): Identity()
                (fc2): Linear(in_features=2048, out_features=512, bias=True)
                (drop2): Dropout(p=0.0, inplace=False)
              )
              (ls2): Identity()
              (drop_path2): Identity()
            )
            (attn_grid): PartitionAttentionCl(
              (norm1): LayerNorm((512,), eps=1e-05, elementwise_affine=True)
              (attn): AttentionCl(
                (qkv): Linear(in_features=512, out_features=1536, bias=True)
                (rel_pos): RelPosBiasTf()
                (attn_drop): Dropout(p=0.0, inplace=False)
                (proj): Linear(in_features=512, out_features=512, bias=True)
                (proj_drop): Dropout(p=0.0, inplace=False)
              )
              (ls1): Identity()
              (drop_path1): Identity()
              (norm2): LayerNorm((512,), eps=1e-05, elementwise_affine=True)
              (mlp): Mlp(
                (fc1): Linear(in_features=512, out_features=2048, bias=True)
                (act): GELUTanh()
                (drop1): Dropout(p=0.0, inplace=False)
                (norm): Identity()
                (fc2): Linear(in_features=2048, out_features=512, bias=True)
                (drop2): Dropout(p=0.0, inplace=False)
              )
              (ls2): Identity()
              (drop_path2): Identity()
            )
          )
        )
      )
    )
    (norm): Identity()
    (head): NormMlpClassifierHead(
      (global_pool): SelectAdaptivePool2d (pool_type=avg, flatten=Identity())
      (norm): LayerNorm2d((512,), eps=1e-05, elementwise_affine=True)
      (flatten): Flatten(start_dim=1, end_dim=-1)
      (pre_logits): Sequential(
        (fc): Linear(in_features=512, out_features=512, bias=True)
        (act): Tanh()
      )
      (drop): Dropout(p=0.0, inplace=False)
      (fc): Identity()
    )
  )
  (heads): ModuleList(
    (0): Linear(in_features=512, out_features=384, bias=True)
    (1): Linear(in_features=512, out_features=384, bias=True)
    (2): Linear(in_features=512, out_features=384, bias=True)
    (3): Linear(in_features=512, out_features=384, bias=True)
    (4): Linear(in_features=512, out_features=384, bias=True)
    (5): Linear(in_features=512, out_features=384, bias=True)
    (6): Linear(in_features=512, out_features=384, bias=True)
    (7): Linear(in_features=512, out_features=384, bias=True)
    (8): Linear(in_features=512, out_features=384, bias=True)
    (9): Linear(in_features=512, out_features=384, bias=True)
    (10): Linear(in_features=512, out_features=384, bias=True)
    (11): Linear(in_features=512, out_features=384, bias=True)
    (12): Linear(in_features=512, out_features=384, bias=True)
    (13): Linear(in_features=512, out_features=384, bias=True)
  )
  (heads2): ModuleList(
    (0): Linear(in_features=384, out_features=48, bias=True)
    (1): Linear(in_features=384, out_features=48, bias=True)
    (2): Linear(in_features=384, out_features=48, bias=True)
    (3): Linear(in_features=384, out_features=48, bias=True)
    (4): Linear(in_features=384, out_features=48, bias=True)
    (5): Linear(in_features=384, out_features=48, bias=True)
    (6): Linear(in_features=384, out_features=48, bias=True)
    (7): Linear(in_features=384, out_features=48, bias=True)
    (8): Linear(in_features=384, out_features=48, bias=True)
    (9): Linear(in_features=384, out_features=48, bias=True)
    (10): Linear(in_features=384, out_features=48, bias=True)
    (11): Linear(in_features=384, out_features=48, bias=True)
    (12): Linear(in_features=384, out_features=48, bias=True)
    (13): Linear(in_features=384, out_features=48, bias=True)
  )
  (heads3): ModuleList(
    (0): Linear(in_features=48, out_features=48, bias=True)
    (1): Linear(in_features=48, out_features=48, bias=True)
    (2): Linear(in_features=48, out_features=48, bias=True)
    (3): Linear(in_features=48, out_features=48, bias=True)
    (4): Linear(in_features=48, out_features=48, bias=True)
    (5): Linear(in_features=48, out_features=48, bias=True)
    (6): Linear(in_features=48, out_features=48, bias=True)
    (7): Linear(in_features=48, out_features=48, bias=True)
    (8): Linear(in_features=48, out_features=48, bias=True)
    (9): Linear(in_features=48, out_features=48, bias=True)
    (10): Linear(in_features=48, out_features=48, bias=True)
    (11): Linear(in_features=48, out_features=48, bias=True)
    (12): Linear(in_features=48, out_features=48, bias=True)
    (13): Linear(in_features=48, out_features=48, bias=True)
  )
  (heads4): ModuleList(
    (0): Linear(in_features=48, out_features=2, bias=True)
    (1): Linear(in_features=48, out_features=2, bias=True)
    (2): Linear(in_features=48, out_features=2, bias=True)
    (3): Linear(in_features=48, out_features=2, bias=True)
    (4): Linear(in_features=48, out_features=2, bias=True)
    (5): Linear(in_features=48, out_features=2, bias=True)
    (6): Linear(in_features=48, out_features=2, bias=True)
    (7): Linear(in_features=48, out_features=2, bias=True)
    (8): Linear(in_features=48, out_features=2, bias=True)
    (9): Linear(in_features=48, out_features=2, bias=True)
    (10): Linear(in_features=48, out_features=2, bias=True)
    (11): Linear(in_features=48, out_features=2, bias=True)
    (12): Linear(in_features=48, out_features=2, bias=True)
    (13): Linear(in_features=48, out_features=2, bias=True)
  )
  (relu): ReLU()
)
All checkpoints founded in output/maxvit_tiny_tf_224.in1k/maxvit_224: ['ckpt_epoch_2.pth', 'ckpt_epoch_3.pth', 'ckpt_epoch_1.pth', 'ckpt_epoch_0.pth'][2023-06-22 00:07:41 maxvit_tiny_tf_224.in1k](main.py 101): INFO number of params: 33454436

The latest checkpoint founded: output/maxvit_tiny_tf_224.in1k/maxvit_224/ckpt_epoch_3.pth
All checkpoints founded in output/maxvit_tiny_tf_224.in1k/maxvit_224: ['ckpt_epoch_2.pth', 'ckpt_epoch_3.pth', 'ckpt_epoch_1.pth', 'ckpt_epoch_0.pth']
…
