…
local rank 0 / global rank 0 successfully build train dataset
local rank 0 / global rank 0 successfully build val and test dataset
[2023-07-05 13:06:48 maxvit_large_tf_384.in21k_ft_in1k](main.py 91): INFO Creating model:maxvit/maxvit_large_tf_384.in21k_ft_in1k
[2023-07-05 13:06:50 maxvit_large_tf_384.in21k_ft_in1k](main.py 94): INFO MaxVitTransformer(
  (model): MaxxVit(
    (stem): Stem(
      (conv1): Conv2dSame(3, 128, kernel_size=(3, 3), stride=(2, 2))
      (norm1): BatchNormAct2d(
        128, eps=0.001, momentum=0.1, affine=True, track_running_stats=True
        (drop): Identity()
        (act): GELUTanh()
      )
      (conv2): Conv2d(128, 128, kernel_size=(3, 3), stride=(1, 1), padding=(1, 1))
    )
    (stages): Sequential(
      (0): MaxxVitStage(
        (blocks): Sequential(
          (0): MaxxVitBlock(
            (conv): MbConvBlock(
              (shortcut): Downsample2d(
                (pool): AvgPool2dSame(kernel_size=(2, 2), stride=(2, 2), padding=(0, 0))
                (expand): Identity()
              )
              (pre_norm): BatchNormAct2d(
                128, eps=0.001, momentum=0.1, affine=True, track_running_stats=True
                (drop): Identity()
                (act): Identity()
              )
              (down): Identity()
              (conv1_1x1): Conv2d(128, 512, kernel_size=(1, 1), stride=(1, 1), bias=False)
              (norm1): BatchNormAct2d(
                512, eps=0.001, momentum=0.1, affine=True, track_running_stats=True
                (drop): Identity()
                (act): GELUTanh()
              )
              (conv2_kxk): Conv2dSame(512, 512, kernel_size=(3, 3), stride=(2, 2), groups=512, bias=False)
              (norm2): BatchNormAct2d(
                512, eps=0.001, momentum=0.1, affine=True, track_running_stats=True
                (drop): Identity()
                (act): GELUTanh()
              )
              (se): SEModule(
                (fc1): Conv2d(512, 32, kernel_size=(1, 1), stride=(1, 1))
                (bn): Identity()
                (act): SiLU(inplace=True)
                (fc2): Conv2d(32, 512, kernel_size=(1, 1), stride=(1, 1))
                (gate): Sigmoid()
              )
              (conv3_1x1): Conv2d(512, 128, kernel_size=(1, 1), stride=(1, 1))
              (drop_path): Identity()
            )
            (attn_block): PartitionAttentionCl(
              (norm1): LayerNorm((128,), eps=1e-05, elementwise_affine=True)
              (attn): AttentionCl(
                (qkv): Linear(in_features=128, out_features=384, bias=True)
                (rel_pos): RelPosBiasTf()
                (attn_drop): Dropout(p=0.0, inplace=False)
                (proj): Linear(in_features=128, out_features=128, bias=True)
                (proj_drop): Dropout(p=0.0, inplace=False)
              )
              (ls1): Identity()
              (drop_path1): Identity()
              (norm2): LayerNorm((128,), eps=1e-05, elementwise_affine=True)
              (mlp): Mlp(
                (fc1): Linear(in_features=128, out_features=512, bias=True)
                (act): GELUTanh()
                (drop1): Dropout(p=0.0, inplace=False)
                (norm): Identity()
                (fc2): Linear(in_features=512, out_features=128, bias=True)
                (drop2): Dropout(p=0.0, inplace=False)
              )
              (ls2): Identity()
              (drop_path2): Identity()
            )
            (attn_grid): PartitionAttentionCl(
              (norm1): LayerNorm((128,), eps=1e-05, elementwise_affine=True)
              (attn): AttentionCl(
                (qkv): Linear(in_features=128, out_features=384, bias=True)
                (rel_pos): RelPosBiasTf()
                (attn_drop): Dropout(p=0.0, inplace=False)
                (proj): Linear(in_features=128, out_features=128, bias=True)
                (proj_drop): Dropout(p=0.0, inplace=False)
              )
              (ls1): Identity()
              (drop_path1): Identity()
              (norm2): LayerNorm((128,), eps=1e-05, elementwise_affine=True)
              (mlp): Mlp(
                (fc1): Linear(in_features=128, out_features=512, bias=True)
                (act): GELUTanh()
                (drop1): Dropout(p=0.0, inplace=False)
                (norm): Identity()
                (fc2): Linear(in_features=512, out_features=128, bias=True)
                (drop2): Dropout(p=0.0, inplace=False)
              )
              (ls2): Identity()
              (drop_path2): Identity()
            )
          )
          (1): MaxxVitBlock(
            (conv): MbConvBlock(
              (shortcut): Identity()
              (pre_norm): BatchNormAct2d(
                128, eps=0.001, momentum=0.1, affine=True, track_running_stats=True
                (drop): Identity()
                (act): Identity()
              )
              (down): Identity()
              (conv1_1x1): Conv2d(128, 512, kernel_size=(1, 1), stride=(1, 1), bias=False)
              (norm1): BatchNormAct2d(
                512, eps=0.001, momentum=0.1, affine=True, track_running_stats=True
                (drop): Identity()
                (act): GELUTanh()
              )
              (conv2_kxk): Conv2d(512, 512, kernel_size=(3, 3), stride=(1, 1), padding=(1, 1), groups=512, bias=False)
              (norm2): BatchNormAct2d(
                512, eps=0.001, momentum=0.1, affine=True, track_running_stats=True
                (drop): Identity()
                (act): GELUTanh()
              )
              (se): SEModule(
                (fc1): Conv2d(512, 32, kernel_size=(1, 1), stride=(1, 1))
                (bn): Identity()
                (act): SiLU(inplace=True)
                (fc2): Conv2d(32, 512, kernel_size=(1, 1), stride=(1, 1))
                (gate): Sigmoid()
              )
              (conv3_1x1): Conv2d(512, 128, kernel_size=(1, 1), stride=(1, 1))
              (drop_path): Identity()
            )
            (attn_block): PartitionAttentionCl(
              (norm1): LayerNorm((128,), eps=1e-05, elementwise_affine=True)
              (attn): AttentionCl(
                (qkv): Linear(in_features=128, out_features=384, bias=True)
                (rel_pos): RelPosBiasTf()
                (attn_drop): Dropout(p=0.0, inplace=False)
                (proj): Linear(in_features=128, out_features=128, bias=True)
                (proj_drop): Dropout(p=0.0, inplace=False)
              )
              (ls1): Identity()
              (drop_path1): Identity()
              (norm2): LayerNorm((128,), eps=1e-05, elementwise_affine=True)
              (mlp): Mlp(
                (fc1): Linear(in_features=128, out_features=512, bias=True)
                (act): GELUTanh()
                (drop1): Dropout(p=0.0, inplace=False)
                (norm): Identity()
                (fc2): Linear(in_features=512, out_features=128, bias=True)
                (drop2): Dropout(p=0.0, inplace=False)
              )
              (ls2): Identity()
              (drop_path2): Identity()
            )
            (attn_grid): PartitionAttentionCl(
              (norm1): LayerNorm((128,), eps=1e-05, elementwise_affine=True)
              (attn): AttentionCl(
                (qkv): Linear(in_features=128, out_features=384, bias=True)
                (rel_pos): RelPosBiasTf()
                (attn_drop): Dropout(p=0.0, inplace=False)
                (proj): Linear(in_features=128, out_features=128, bias=True)
                (proj_drop): Dropout(p=0.0, inplace=False)
              )
              (ls1): Identity()
              (drop_path1): Identity()
              (norm2): LayerNorm((128,), eps=1e-05, elementwise_affine=True)
              (mlp): Mlp(
                (fc1): Linear(in_features=128, out_features=512, bias=True)
                (act): GELUTanh()
                (drop1): Dropout(p=0.0, inplace=False)
                (norm): Identity()
                (fc2): Linear(in_features=512, out_features=128, bias=True)
                (drop2): Dropout(p=0.0, inplace=False)
              )
              (ls2): Identity()
              (drop_path2): Identity()
            )
          )
        )
      )
      (1): MaxxVitStage(
        (blocks): Sequential(
          (0): MaxxVitBlock(
            (conv): MbConvBlock(
              (shortcut): Downsample2d(
                (pool): AvgPool2dSame(kernel_size=(2, 2), stride=(2, 2), padding=(0, 0))
                (expand): Conv2d(128, 256, kernel_size=(1, 1), stride=(1, 1))
              )
              (pre_norm): BatchNormAct2d(
                128, eps=0.001, momentum=0.1, affine=True, track_running_stats=True
                (drop): Identity()
                (act): Identity()
              )
              (down): Identity()
              (conv1_1x1): Conv2d(128, 1024, kernel_size=(1, 1), stride=(1, 1), bias=False)
              (norm1): BatchNormAct2d(
                1024, eps=0.001, momentum=0.1, affine=True, track_running_stats=True
                (drop): Identity()
                (act): GELUTanh()
              )
              (conv2_kxk): Conv2dSame(1024, 1024, kernel_size=(3, 3), stride=(2, 2), groups=1024, bias=False)
              (norm2): BatchNormAct2d(
                1024, eps=0.001, momentum=0.1, affine=True, track_running_stats=True
                (drop): Identity()
                (act): GELUTanh()
              )
              (se): SEModule(
                (fc1): Conv2d(1024, 64, kernel_size=(1, 1), stride=(1, 1))
                (bn): Identity()
                (act): SiLU(inplace=True)
                (fc2): Conv2d(64, 1024, kernel_size=(1, 1), stride=(1, 1))
                (gate): Sigmoid()
              )
              (conv3_1x1): Conv2d(1024, 256, kernel_size=(1, 1), stride=(1, 1))
              (drop_path): Identity()
            )
            (attn_block): PartitionAttentionCl(
              (norm1): LayerNorm((256,), eps=1e-05, elementwise_affine=True)
              (attn): AttentionCl(
                (qkv): Linear(in_features=256, out_features=768, bias=True)
                (rel_pos): RelPosBiasTf()
                (attn_drop): Dropout(p=0.0, inplace=False)
                (proj): Linear(in_features=256, out_features=256, bias=True)
                (proj_drop): Dropout(p=0.0, inplace=False)
              )
              (ls1): Identity()
              (drop_path1): Identity()
              (norm2): LayerNorm((256,), eps=1e-05, elementwise_affine=True)
              (mlp): Mlp(
                (fc1): Linear(in_features=256, out_features=1024, bias=True)
                (act): GELUTanh()
                (drop1): Dropout(p=0.0, inplace=False)
                (norm): Identity()
                (fc2): Linear(in_features=1024, out_features=256, bias=True)
                (drop2): Dropout(p=0.0, inplace=False)
              )
              (ls2): Identity()
              (drop_path2): Identity()
            )
            (attn_grid): PartitionAttentionCl(
              (norm1): LayerNorm((256,), eps=1e-05, elementwise_affine=True)
              (attn): AttentionCl(
                (qkv): Linear(in_features=256, out_features=768, bias=True)
                (rel_pos): RelPosBiasTf()
                (attn_drop): Dropout(p=0.0, inplace=False)
                (proj): Linear(in_features=256, out_features=256, bias=True)
                (proj_drop): Dropout(p=0.0, inplace=False)
              )
              (ls1): Identity()
              (drop_path1): Identity()
              (norm2): LayerNorm((256,), eps=1e-05, elementwise_affine=True)
              (mlp): Mlp(
                (fc1): Linear(in_features=256, out_features=1024, bias=True)
                (act): GELUTanh()
                (drop1): Dropout(p=0.0, inplace=False)
                (norm): Identity()
                (fc2): Linear(in_features=1024, out_features=256, bias=True)
                (drop2): Dropout(p=0.0, inplace=False)
              )
              (ls2): Identity()
              (drop_path2): Identity()
            )
          )
          (1): MaxxVitBlock(
            (conv): MbConvBlock(
              (shortcut): Identity()
              (pre_norm): BatchNormAct2d(
                256, eps=0.001, momentum=0.1, affine=True, track_running_stats=True
                (drop): Identity()
                (act): Identity()
              )
              (down): Identity()
              (conv1_1x1): Conv2d(256, 1024, kernel_size=(1, 1), stride=(1, 1), bias=False)
              (norm1): BatchNormAct2d(
                1024, eps=0.001, momentum=0.1, affine=True, track_running_stats=True
                (drop): Identity()
                (act): GELUTanh()
              )
              (conv2_kxk): Conv2d(1024, 1024, kernel_size=(3, 3), stride=(1, 1), padding=(1, 1), groups=1024, bias=False)
              (norm2): BatchNormAct2d(
                1024, eps=0.001, momentum=0.1, affine=True, track_running_stats=True
                (drop): Identity()
                (act): GELUTanh()
              )
              (se): SEModule(
                (fc1): Conv2d(1024, 64, kernel_size=(1, 1), stride=(1, 1))
                (bn): Identity()
                (act): SiLU(inplace=True)
                (fc2): Conv2d(64, 1024, kernel_size=(1, 1), stride=(1, 1))
                (gate): Sigmoid()
              )
              (conv3_1x1): Conv2d(1024, 256, kernel_size=(1, 1), stride=(1, 1))
              (drop_path): Identity()
            )
            (attn_block): PartitionAttentionCl(
              (norm1): LayerNorm((256,), eps=1e-05, elementwise_affine=True)
              (attn): AttentionCl(
                (qkv): Linear(in_features=256, out_features=768, bias=True)
                (rel_pos): RelPosBiasTf()
                (attn_drop): Dropout(p=0.0, inplace=False)
                (proj): Linear(in_features=256, out_features=256, bias=True)
                (proj_drop): Dropout(p=0.0, inplace=False)
              )
              (ls1): Identity()
              (drop_path1): Identity()
              (norm2): LayerNorm((256,), eps=1e-05, elementwise_affine=True)
              (mlp): Mlp(
                (fc1): Linear(in_features=256, out_features=1024, bias=True)
                (act): GELUTanh()
                (drop1): Dropout(p=0.0, inplace=False)
                (norm): Identity()
                (fc2): Linear(in_features=1024, out_features=256, bias=True)
                (drop2): Dropout(p=0.0, inplace=False)
              )
              (ls2): Identity()
              (drop_path2): Identity()
            )
            (attn_grid): PartitionAttentionCl(
              (norm1): LayerNorm((256,), eps=1e-05, elementwise_affine=True)
              (attn): AttentionCl(
                (qkv): Linear(in_features=256, out_features=768, bias=True)
                (rel_pos): RelPosBiasTf()
                (attn_drop): Dropout(p=0.0, inplace=False)
                (proj): Linear(in_features=256, out_features=256, bias=True)
                (proj_drop): Dropout(p=0.0, inplace=False)
              )
              (ls1): Identity()
              (drop_path1): Identity()
              (norm2): LayerNorm((256,), eps=1e-05, elementwise_affine=True)
              (mlp): Mlp(
                (fc1): Linear(in_features=256, out_features=1024, bias=True)
                (act): GELUTanh()
                (drop1): Dropout(p=0.0, inplace=False)
                (norm): Identity()
                (fc2): Linear(in_features=1024, out_features=256, bias=True)
                (drop2): Dropout(p=0.0, inplace=False)
              )
              (ls2): Identity()
              (drop_path2): Identity()
            )
          )
          (2): MaxxVitBlock(
            (conv): MbConvBlock(
              (shortcut): Identity()
              (pre_norm): BatchNormAct2d(
                256, eps=0.001, momentum=0.1, affine=True, track_running_stats=True
                (drop): Identity()
                (act): Identity()
              )
              (down): Identity()
              (conv1_1x1): Conv2d(256, 1024, kernel_size=(1, 1), stride=(1, 1), bias=False)
              (norm1): BatchNormAct2d(
                1024, eps=0.001, momentum=0.1, affine=True, track_running_stats=True
                (drop): Identity()
                (act): GELUTanh()
              )
              (conv2_kxk): Conv2d(1024, 1024, kernel_size=(3, 3), stride=(1, 1), padding=(1, 1), groups=1024, bias=False)
              (norm2): BatchNormAct2d(
                1024, eps=0.001, momentum=0.1, affine=True, track_running_stats=True
                (drop): Identity()
                (act): GELUTanh()
              )
              (se): SEModule(
                (fc1): Conv2d(1024, 64, kernel_size=(1, 1), stride=(1, 1))
                (bn): Identity()
                (act): SiLU(inplace=True)
                (fc2): Conv2d(64, 1024, kernel_size=(1, 1), stride=(1, 1))
                (gate): Sigmoid()
              )
              (conv3_1x1): Conv2d(1024, 256, kernel_size=(1, 1), stride=(1, 1))
              (drop_path): Identity()
            )
            (attn_block): PartitionAttentionCl(
              (norm1): LayerNorm((256,), eps=1e-05, elementwise_affine=True)
              (attn): AttentionCl(
                (qkv): Linear(in_features=256, out_features=768, bias=True)
                (rel_pos): RelPosBiasTf()
                (attn_drop): Dropout(p=0.0, inplace=False)
                (proj): Linear(in_features=256, out_features=256, bias=True)
                (proj_drop): Dropout(p=0.0, inplace=False)
              )
              (ls1): Identity()
              (drop_path1): Identity()
              (norm2): LayerNorm((256,), eps=1e-05, elementwise_affine=True)
              (mlp): Mlp(
                (fc1): Linear(in_features=256, out_features=1024, bias=True)
                (act): GELUTanh()
                (drop1): Dropout(p=0.0, inplace=False)
                (norm): Identity()
                (fc2): Linear(in_features=1024, out_features=256, bias=True)
                (drop2): Dropout(p=0.0, inplace=False)
              )
              (ls2): Identity()
              (drop_path2): Identity()
            )
            (attn_grid): PartitionAttentionCl(
              (norm1): LayerNorm((256,), eps=1e-05, elementwise_affine=True)
              (attn): AttentionCl(
                (qkv): Linear(in_features=256, out_features=768, bias=True)
                (rel_pos): RelPosBiasTf()
                (attn_drop): Dropout(p=0.0, inplace=False)
                (proj): Linear(in_features=256, out_features=256, bias=True)
                (proj_drop): Dropout(p=0.0, inplace=False)
              )
              (ls1): Identity()
              (drop_path1): Identity()
              (norm2): LayerNorm((256,), eps=1e-05, elementwise_affine=True)
              (mlp): Mlp(
                (fc1): Linear(in_features=256, out_features=1024, bias=True)
                (act): GELUTanh()
                (drop1): Dropout(p=0.0, inplace=False)
                (norm): Identity()
                (fc2): Linear(in_features=1024, out_features=256, bias=True)
                (drop2): Dropout(p=0.0, inplace=False)
              )
              (ls2): Identity()
              (drop_path2): Identity()
            )
          )
          (3): MaxxVitBlock(
            (conv): MbConvBlock(
              (shortcut): Identity()
              (pre_norm): BatchNormAct2d(
                256, eps=0.001, momentum=0.1, affine=True, track_running_stats=True
                (drop): Identity()
                (act): Identity()
              )
              (down): Identity()
              (conv1_1x1): Conv2d(256, 1024, kernel_size=(1, 1), stride=(1, 1), bias=False)
              (norm1): BatchNormAct2d(
                1024, eps=0.001, momentum=0.1, affine=True, track_running_stats=True
                (drop): Identity()
                (act): GELUTanh()
              )
              (conv2_kxk): Conv2d(1024, 1024, kernel_size=(3, 3), stride=(1, 1), padding=(1, 1), groups=1024, bias=False)
              (norm2): BatchNormAct2d(
                1024, eps=0.001, momentum=0.1, affine=True, track_running_stats=True
                (drop): Identity()
                (act): GELUTanh()
              )
              (se): SEModule(
                (fc1): Conv2d(1024, 64, kernel_size=(1, 1), stride=(1, 1))
                (bn): Identity()
                (act): SiLU(inplace=True)
                (fc2): Conv2d(64, 1024, kernel_size=(1, 1), stride=(1, 1))
                (gate): Sigmoid()
              )
              (conv3_1x1): Conv2d(1024, 256, kernel_size=(1, 1), stride=(1, 1))
              (drop_path): Identity()
            )
            (attn_block): PartitionAttentionCl(
              (norm1): LayerNorm((256,), eps=1e-05, elementwise_affine=True)
              (attn): AttentionCl(
                (qkv): Linear(in_features=256, out_features=768, bias=True)
                (rel_pos): RelPosBiasTf()
                (attn_drop): Dropout(p=0.0, inplace=False)
                (proj): Linear(in_features=256, out_features=256, bias=True)
                (proj_drop): Dropout(p=0.0, inplace=False)
              )
              (ls1): Identity()
              (drop_path1): Identity()
              (norm2): LayerNorm((256,), eps=1e-05, elementwise_affine=True)
              (mlp): Mlp(
                (fc1): Linear(in_features=256, out_features=1024, bias=True)
                (act): GELUTanh()
                (drop1): Dropout(p=0.0, inplace=False)
                (norm): Identity()
                (fc2): Linear(in_features=1024, out_features=256, bias=True)
                (drop2): Dropout(p=0.0, inplace=False)
              )
              (ls2): Identity()
              (drop_path2): Identity()
            )
            (attn_grid): PartitionAttentionCl(
              (norm1): LayerNorm((256,), eps=1e-05, elementwise_affine=True)
              (attn): AttentionCl(
                (qkv): Linear(in_features=256, out_features=768, bias=True)
                (rel_pos): RelPosBiasTf()
                (attn_drop): Dropout(p=0.0, inplace=False)
                (proj): Linear(in_features=256, out_features=256, bias=True)
                (proj_drop): Dropout(p=0.0, inplace=False)
              )
              (ls1): Identity()
              (drop_path1): Identity()
              (norm2): LayerNorm((256,), eps=1e-05, elementwise_affine=True)
              (mlp): Mlp(
                (fc1): Linear(in_features=256, out_features=1024, bias=True)
                (act): GELUTanh()
                (drop1): Dropout(p=0.0, inplace=False)
                (norm): Identity()
                (fc2): Linear(in_features=1024, out_features=256, bias=True)
                (drop2): Dropout(p=0.0, inplace=False)
              )
              (ls2): Identity()
              (drop_path2): Identity()
            )
          )
          (4): MaxxVitBlock(
            (conv): MbConvBlock(
              (shortcut): Identity()
              (pre_norm): BatchNormAct2d(
                256, eps=0.001, momentum=0.1, affine=True, track_running_stats=True
                (drop): Identity()
                (act): Identity()
              )
              (down): Identity()
              (conv1_1x1): Conv2d(256, 1024, kernel_size=(1, 1), stride=(1, 1), bias=False)
              (norm1): BatchNormAct2d(
                1024, eps=0.001, momentum=0.1, affine=True, track_running_stats=True
                (drop): Identity()
                (act): GELUTanh()
              )
              (conv2_kxk): Conv2d(1024, 1024, kernel_size=(3, 3), stride=(1, 1), padding=(1, 1), groups=1024, bias=False)
              (norm2): BatchNormAct2d(
                1024, eps=0.001, momentum=0.1, affine=True, track_running_stats=True
                (drop): Identity()
                (act): GELUTanh()
              )
              (se): SEModule(
                (fc1): Conv2d(1024, 64, kernel_size=(1, 1), stride=(1, 1))
                (bn): Identity()
                (act): SiLU(inplace=True)
                (fc2): Conv2d(64, 1024, kernel_size=(1, 1), stride=(1, 1))
                (gate): Sigmoid()
              )
              (conv3_1x1): Conv2d(1024, 256, kernel_size=(1, 1), stride=(1, 1))
              (drop_path): Identity()
            )
            (attn_block): PartitionAttentionCl(
              (norm1): LayerNorm((256,), eps=1e-05, elementwise_affine=True)
              (attn): AttentionCl(
                (qkv): Linear(in_features=256, out_features=768, bias=True)
                (rel_pos): RelPosBiasTf()
                (attn_drop): Dropout(p=0.0, inplace=False)
                (proj): Linear(in_features=256, out_features=256, bias=True)
                (proj_drop): Dropout(p=0.0, inplace=False)
              )
              (ls1): Identity()
              (drop_path1): Identity()
              (norm2): LayerNorm((256,), eps=1e-05, elementwise_affine=True)
              (mlp): Mlp(
                (fc1): Linear(in_features=256, out_features=1024, bias=True)
                (act): GELUTanh()
                (drop1): Dropout(p=0.0, inplace=False)
                (norm): Identity()
                (fc2): Linear(in_features=1024, out_features=256, bias=True)
                (drop2): Dropout(p=0.0, inplace=False)
              )
              (ls2): Identity()
              (drop_path2): Identity()
            )
            (attn_grid): PartitionAttentionCl(
              (norm1): LayerNorm((256,), eps=1e-05, elementwise_affine=True)
              (attn): AttentionCl(
                (qkv): Linear(in_features=256, out_features=768, bias=True)
                (rel_pos): RelPosBiasTf()
                (attn_drop): Dropout(p=0.0, inplace=False)
                (proj): Linear(in_features=256, out_features=256, bias=True)
                (proj_drop): Dropout(p=0.0, inplace=False)
              )
              (ls1): Identity()
              (drop_path1): Identity()
              (norm2): LayerNorm((256,), eps=1e-05, elementwise_affine=True)
              (mlp): Mlp(
                (fc1): Linear(in_features=256, out_features=1024, bias=True)
                (act): GELUTanh()
                (drop1): Dropout(p=0.0, inplace=False)
                (norm): Identity()
                (fc2): Linear(in_features=1024, out_features=256, bias=True)
                (drop2): Dropout(p=0.0, inplace=False)
              )
              (ls2): Identity()
              (drop_path2): Identity()
            )
          )
          (5): MaxxVitBlock(
            (conv): MbConvBlock(
              (shortcut): Identity()
              (pre_norm): BatchNormAct2d(
                256, eps=0.001, momentum=0.1, affine=True, track_running_stats=True
                (drop): Identity()
                (act): Identity()
              )
              (down): Identity()
              (conv1_1x1): Conv2d(256, 1024, kernel_size=(1, 1), stride=(1, 1), bias=False)
              (norm1): BatchNormAct2d(
                1024, eps=0.001, momentum=0.1, affine=True, track_running_stats=True
                (drop): Identity()
                (act): GELUTanh()
              )
              (conv2_kxk): Conv2d(1024, 1024, kernel_size=(3, 3), stride=(1, 1), padding=(1, 1), groups=1024, bias=False)
              (norm2): BatchNormAct2d(
                1024, eps=0.001, momentum=0.1, affine=True, track_running_stats=True
                (drop): Identity()
                (act): GELUTanh()
              )
              (se): SEModule(
                (fc1): Conv2d(1024, 64, kernel_size=(1, 1), stride=(1, 1))
                (bn): Identity()
                (act): SiLU(inplace=True)
                (fc2): Conv2d(64, 1024, kernel_size=(1, 1), stride=(1, 1))
                (gate): Sigmoid()
              )
              (conv3_1x1): Conv2d(1024, 256, kernel_size=(1, 1), stride=(1, 1))
              (drop_path): Identity()
            )
            (attn_block): PartitionAttentionCl(
              (norm1): LayerNorm((256,), eps=1e-05, elementwise_affine=True)
              (attn): AttentionCl(
                (qkv): Linear(in_features=256, out_features=768, bias=True)
                (rel_pos): RelPosBiasTf()
                (attn_drop): Dropout(p=0.0, inplace=False)
                (proj): Linear(in_features=256, out_features=256, bias=True)
                (proj_drop): Dropout(p=0.0, inplace=False)
              )
              (ls1): Identity()
              (drop_path1): Identity()
              (norm2): LayerNorm((256,), eps=1e-05, elementwise_affine=True)
              (mlp): Mlp(
                (fc1): Linear(in_features=256, out_features=1024, bias=True)
                (act): GELUTanh()
                (drop1): Dropout(p=0.0, inplace=False)
                (norm): Identity()
                (fc2): Linear(in_features=1024, out_features=256, bias=True)
                (drop2): Dropout(p=0.0, inplace=False)
              )
              (ls2): Identity()
              (drop_path2): Identity()
            )
            (attn_grid): PartitionAttentionCl(
              (norm1): LayerNorm((256,), eps=1e-05, elementwise_affine=True)
              (attn): AttentionCl(
                (qkv): Linear(in_features=256, out_features=768, bias=True)
                (rel_pos): RelPosBiasTf()
                (attn_drop): Dropout(p=0.0, inplace=False)
                (proj): Linear(in_features=256, out_features=256, bias=True)
                (proj_drop): Dropout(p=0.0, inplace=False)
              )
              (ls1): Identity()
              (drop_path1): Identity()
              (norm2): LayerNorm((256,), eps=1e-05, elementwise_affine=True)
              (mlp): Mlp(
                (fc1): Linear(in_features=256, out_features=1024, bias=True)
                (act): GELUTanh()
                (drop1): Dropout(p=0.0, inplace=False)
                (norm): Identity()
                (fc2): Linear(in_features=1024, out_features=256, bias=True)
                (drop2): Dropout(p=0.0, inplace=False)
              )
              (ls2): Identity()
              (drop_path2): Identity()
            )
          )
        )
      )
      (2): MaxxVitStage(
        (blocks): Sequential(
          (0): MaxxVitBlock(
            (conv): MbConvBlock(
              (shortcut): Downsample2d(
                (pool): AvgPool2dSame(kernel_size=(2, 2), stride=(2, 2), padding=(0, 0))
                (expand): Conv2d(256, 512, kernel_size=(1, 1), stride=(1, 1))
              )
              (pre_norm): BatchNormAct2d(
                256, eps=0.001, momentum=0.1, affine=True, track_running_stats=True
                (drop): Identity()
                (act): Identity()
              )
              (down): Identity()
              (conv1_1x1): Conv2d(256, 2048, kernel_size=(1, 1), stride=(1, 1), bias=False)
              (norm1): BatchNormAct2d(
                2048, eps=0.001, momentum=0.1, affine=True, track_running_stats=True
                (drop): Identity()
                (act): GELUTanh()
              )
              (conv2_kxk): Conv2dSame(2048, 2048, kernel_size=(3, 3), stride=(2, 2), groups=2048, bias=False)
              (norm2): BatchNormAct2d(
                2048, eps=0.001, momentum=0.1, affine=True, track_running_stats=True
                (drop): Identity()
                (act): GELUTanh()
              )
              (se): SEModule(
                (fc1): Conv2d(2048, 128, kernel_size=(1, 1), stride=(1, 1))
                (bn): Identity()
                (act): SiLU(inplace=True)
                (fc2): Conv2d(128, 2048, kernel_size=(1, 1), stride=(1, 1))
                (gate): Sigmoid()
              )
              (conv3_1x1): Conv2d(2048, 512, kernel_size=(1, 1), stride=(1, 1))
              (drop_path): Identity()
            )
            (attn_block): PartitionAttentionCl(
              (norm1): LayerNorm((512,), eps=1e-05, elementwise_affine=True)
              (attn): AttentionCl(
                (qkv): Linear(in_features=512, out_features=1536, bias=True)
                (rel_pos): RelPosBiasTf()
                (attn_drop): Dropout(p=0.0, inplace=False)
                (proj): Linear(in_features=512, out_features=512, bias=True)
                (proj_drop): Dropout(p=0.0, inplace=False)
              )
              (ls1): Identity()
              (drop_path1): Identity()
              (norm2): LayerNorm((512,), eps=1e-05, elementwise_affine=True)
              (mlp): Mlp(
                (fc1): Linear(in_features=512, out_features=2048, bias=True)
                (act): GELUTanh()
                (drop1): Dropout(p=0.0, inplace=False)
                (norm): Identity()
                (fc2): Linear(in_features=2048, out_features=512, bias=True)
                (drop2): Dropout(p=0.0, inplace=False)
              )
              (ls2): Identity()
              (drop_path2): Identity()
            )
            (attn_grid): PartitionAttentionCl(
              (norm1): LayerNorm((512,), eps=1e-05, elementwise_affine=True)
              (attn): AttentionCl(
                (qkv): Linear(in_features=512, out_features=1536, bias=True)
                (rel_pos): RelPosBiasTf()
                (attn_drop): Dropout(p=0.0, inplace=False)
                (proj): Linear(in_features=512, out_features=512, bias=True)
                (proj_drop): Dropout(p=0.0, inplace=False)
              )
              (ls1): Identity()
              (drop_path1): Identity()
              (norm2): LayerNorm((512,), eps=1e-05, elementwise_affine=True)
              (mlp): Mlp(
                (fc1): Linear(in_features=512, out_features=2048, bias=True)
                (act): GELUTanh()
                (drop1): Dropout(p=0.0, inplace=False)
                (norm): Identity()
                (fc2): Linear(in_features=2048, out_features=512, bias=True)
                (drop2): Dropout(p=0.0, inplace=False)
              )
              (ls2): Identity()
              (drop_path2): Identity()
            )
          )
          (1): MaxxVitBlock(
            (conv): MbConvBlock(
              (shortcut): Identity()
              (pre_norm): BatchNormAct2d(
                512, eps=0.001, momentum=0.1, affine=True, track_running_stats=True
                (drop): Identity()
                (act): Identity()
              )
              (down): Identity()
              (conv1_1x1): Conv2d(512, 2048, kernel_size=(1, 1), stride=(1, 1), bias=False)
              (norm1): BatchNormAct2d(
                2048, eps=0.001, momentum=0.1, affine=True, track_running_stats=True
                (drop): Identity()
                (act): GELUTanh()
              )
              (conv2_kxk): Conv2d(2048, 2048, kernel_size=(3, 3), stride=(1, 1), padding=(1, 1), groups=2048, bias=False)
              (norm2): BatchNormAct2d(
                2048, eps=0.001, momentum=0.1, affine=True, track_running_stats=True
                (drop): Identity()
                (act): GELUTanh()
              )
              (se): SEModule(
                (fc1): Conv2d(2048, 128, kernel_size=(1, 1), stride=(1, 1))
                (bn): Identity()
                (act): SiLU(inplace=True)
                (fc2): Conv2d(128, 2048, kernel_size=(1, 1), stride=(1, 1))
                (gate): Sigmoid()
              )
              (conv3_1x1): Conv2d(2048, 512, kernel_size=(1, 1), stride=(1, 1))
              (drop_path): Identity()
            )
            (attn_block): PartitionAttentionCl(
              (norm1): LayerNorm((512,), eps=1e-05, elementwise_affine=True)
              (attn): AttentionCl(
                (qkv): Linear(in_features=512, out_features=1536, bias=True)
                (rel_pos): RelPosBiasTf()
                (attn_drop): Dropout(p=0.0, inplace=False)
                (proj): Linear(in_features=512, out_features=512, bias=True)
                (proj_drop): Dropout(p=0.0, inplace=False)
              )
              (ls1): Identity()
              (drop_path1): Identity()
              (norm2): LayerNorm((512,), eps=1e-05, elementwise_affine=True)
              (mlp): Mlp(
                (fc1): Linear(in_features=512, out_features=2048, bias=True)
                (act): GELUTanh()
                (drop1): Dropout(p=0.0, inplace=False)
                (norm): Identity()
                (fc2): Linear(in_features=2048, out_features=512, bias=True)
                (drop2): Dropout(p=0.0, inplace=False)
              )
              (ls2): Identity()
              (drop_path2): Identity()
            )
            (attn_grid): PartitionAttentionCl(
              (norm1): LayerNorm((512,), eps=1e-05, elementwise_affine=True)
              (attn): AttentionCl(
                (qkv): Linear(in_features=512, out_features=1536, bias=True)
                (rel_pos): RelPosBiasTf()
                (attn_drop): Dropout(p=0.0, inplace=False)
                (proj): Linear(in_features=512, out_features=512, bias=True)
                (proj_drop): Dropout(p=0.0, inplace=False)
              )
              (ls1): Identity()
              (drop_path1): Identity()
              (norm2): LayerNorm((512,), eps=1e-05, elementwise_affine=True)
              (mlp): Mlp(
                (fc1): Linear(in_features=512, out_features=2048, bias=True)
                (act): GELUTanh()
                (drop1): Dropout(p=0.0, inplace=False)
                (norm): Identity()
                (fc2): Linear(in_features=2048, out_features=512, bias=True)
                (drop2): Dropout(p=0.0, inplace=False)
              )
              (ls2): Identity()
              (drop_path2): Identity()
            )
          )
          (2): MaxxVitBlock(
            (conv): MbConvBlock(
              (shortcut): Identity()
              (pre_norm): BatchNormAct2d(
                512, eps=0.001, momentum=0.1, affine=True, track_running_stats=True
                (drop): Identity()
                (act): Identity()
              )
              (down): Identity()
              (conv1_1x1): Conv2d(512, 2048, kernel_size=(1, 1), stride=(1, 1), bias=False)
              (norm1): BatchNormAct2d(
                2048, eps=0.001, momentum=0.1, affine=True, track_running_stats=True
                (drop): Identity()
                (act): GELUTanh()
              )
              (conv2_kxk): Conv2d(2048, 2048, kernel_size=(3, 3), stride=(1, 1), padding=(1, 1), groups=2048, bias=False)
              (norm2): BatchNormAct2d(
                2048, eps=0.001, momentum=0.1, affine=True, track_running_stats=True
                (drop): Identity()
                (act): GELUTanh()
              )
              (se): SEModule(
                (fc1): Conv2d(2048, 128, kernel_size=(1, 1), stride=(1, 1))
                (bn): Identity()
                (act): SiLU(inplace=True)
                (fc2): Conv2d(128, 2048, kernel_size=(1, 1), stride=(1, 1))
                (gate): Sigmoid()
              )
              (conv3_1x1): Conv2d(2048, 512, kernel_size=(1, 1), stride=(1, 1))
              (drop_path): Identity()
            )
            (attn_block): PartitionAttentionCl(
              (norm1): LayerNorm((512,), eps=1e-05, elementwise_affine=True)
              (attn): AttentionCl(
                (qkv): Linear(in_features=512, out_features=1536, bias=True)
                (rel_pos): RelPosBiasTf()
                (attn_drop): Dropout(p=0.0, inplace=False)
                (proj): Linear(in_features=512, out_features=512, bias=True)
                (proj_drop): Dropout(p=0.0, inplace=False)
              )
              (ls1): Identity()
              (drop_path1): Identity()
              (norm2): LayerNorm((512,), eps=1e-05, elementwise_affine=True)
              (mlp): Mlp(
                (fc1): Linear(in_features=512, out_features=2048, bias=True)
                (act): GELUTanh()
                (drop1): Dropout(p=0.0, inplace=False)
                (norm): Identity()
                (fc2): Linear(in_features=2048, out_features=512, bias=True)
                (drop2): Dropout(p=0.0, inplace=False)
              )
              (ls2): Identity()
              (drop_path2): Identity()
            )
            (attn_grid): PartitionAttentionCl(
              (norm1): LayerNorm((512,), eps=1e-05, elementwise_affine=True)
              (attn): AttentionCl(
                (qkv): Linear(in_features=512, out_features=1536, bias=True)
                (rel_pos): RelPosBiasTf()
                (attn_drop): Dropout(p=0.0, inplace=False)
                (proj): Linear(in_features=512, out_features=512, bias=True)
                (proj_drop): Dropout(p=0.0, inplace=False)
              )
              (ls1): Identity()
              (drop_path1): Identity()
              (norm2): LayerNorm((512,), eps=1e-05, elementwise_affine=True)
              (mlp): Mlp(
                (fc1): Linear(in_features=512, out_features=2048, bias=True)
                (act): GELUTanh()
                (drop1): Dropout(p=0.0, inplace=False)
                (norm): Identity()
                (fc2): Linear(in_features=2048, out_features=512, bias=True)
                (drop2): Dropout(p=0.0, inplace=False)
              )
              (ls2): Identity()
              (drop_path2): Identity()
            )
          )
          (3): MaxxVitBlock(
            (conv): MbConvBlock(
              (shortcut): Identity()
              (pre_norm): BatchNormAct2d(
                512, eps=0.001, momentum=0.1, affine=True, track_running_stats=True
                (drop): Identity()
                (act): Identity()
              )
              (down): Identity()
              (conv1_1x1): Conv2d(512, 2048, kernel_size=(1, 1), stride=(1, 1), bias=False)
              (norm1): BatchNormAct2d(
                2048, eps=0.001, momentum=0.1, affine=True, track_running_stats=True
                (drop): Identity()
                (act): GELUTanh()
              )
              (conv2_kxk): Conv2d(2048, 2048, kernel_size=(3, 3), stride=(1, 1), padding=(1, 1), groups=2048, bias=False)
              (norm2): BatchNormAct2d(
                2048, eps=0.001, momentum=0.1, affine=True, track_running_stats=True
                (drop): Identity()
                (act): GELUTanh()
              )
              (se): SEModule(
                (fc1): Conv2d(2048, 128, kernel_size=(1, 1), stride=(1, 1))
                (bn): Identity()
                (act): SiLU(inplace=True)
                (fc2): Conv2d(128, 2048, kernel_size=(1, 1), stride=(1, 1))
                (gate): Sigmoid()
              )
              (conv3_1x1): Conv2d(2048, 512, kernel_size=(1, 1), stride=(1, 1))
              (drop_path): Identity()
            )
            (attn_block): PartitionAttentionCl(
              (norm1): LayerNorm((512,), eps=1e-05, elementwise_affine=True)
              (attn): AttentionCl(
                (qkv): Linear(in_features=512, out_features=1536, bias=True)
                (rel_pos): RelPosBiasTf()
                (attn_drop): Dropout(p=0.0, inplace=False)
                (proj): Linear(in_features=512, out_features=512, bias=True)
                (proj_drop): Dropout(p=0.0, inplace=False)
              )
              (ls1): Identity()
              (drop_path1): Identity()
              (norm2): LayerNorm((512,), eps=1e-05, elementwise_affine=True)
              (mlp): Mlp(
                (fc1): Linear(in_features=512, out_features=2048, bias=True)
                (act): GELUTanh()
                (drop1): Dropout(p=0.0, inplace=False)
                (norm): Identity()
                (fc2): Linear(in_features=2048, out_features=512, bias=True)
                (drop2): Dropout(p=0.0, inplace=False)
              )
              (ls2): Identity()
              (drop_path2): Identity()
            )
            (attn_grid): PartitionAttentionCl(
              (norm1): LayerNorm((512,), eps=1e-05, elementwise_affine=True)
              (attn): AttentionCl(
                (qkv): Linear(in_features=512, out_features=1536, bias=True)
                (rel_pos): RelPosBiasTf()
                (attn_drop): Dropout(p=0.0, inplace=False)
                (proj): Linear(in_features=512, out_features=512, bias=True)
                (proj_drop): Dropout(p=0.0, inplace=False)
              )
              (ls1): Identity()
              (drop_path1): Identity()
              (norm2): LayerNorm((512,), eps=1e-05, elementwise_affine=True)
              (mlp): Mlp(
                (fc1): Linear(in_features=512, out_features=2048, bias=True)
                (act): GELUTanh()
                (drop1): Dropout(p=0.0, inplace=False)
                (norm): Identity()
                (fc2): Linear(in_features=2048, out_features=512, bias=True)
                (drop2): Dropout(p=0.0, inplace=False)
              )
              (ls2): Identity()
              (drop_path2): Identity()
            )
          )
          (4): MaxxVitBlock(
            (conv): MbConvBlock(
              (shortcut): Identity()
              (pre_norm): BatchNormAct2d(
                512, eps=0.001, momentum=0.1, affine=True, track_running_stats=True
                (drop): Identity()
                (act): Identity()
              )
              (down): Identity()
              (conv1_1x1): Conv2d(512, 2048, kernel_size=(1, 1), stride=(1, 1), bias=False)
              (norm1): BatchNormAct2d(
                2048, eps=0.001, momentum=0.1, affine=True, track_running_stats=True
                (drop): Identity()
                (act): GELUTanh()
              )
              (conv2_kxk): Conv2d(2048, 2048, kernel_size=(3, 3), stride=(1, 1), padding=(1, 1), groups=2048, bias=False)
              (norm2): BatchNormAct2d(
                2048, eps=0.001, momentum=0.1, affine=True, track_running_stats=True
                (drop): Identity()
                (act): GELUTanh()
              )
              (se): SEModule(
                (fc1): Conv2d(2048, 128, kernel_size=(1, 1), stride=(1, 1))
                (bn): Identity()
                (act): SiLU(inplace=True)
                (fc2): Conv2d(128, 2048, kernel_size=(1, 1), stride=(1, 1))
                (gate): Sigmoid()
              )
              (conv3_1x1): Conv2d(2048, 512, kernel_size=(1, 1), stride=(1, 1))
              (drop_path): Identity()
            )
            (attn_block): PartitionAttentionCl(
              (norm1): LayerNorm((512,), eps=1e-05, elementwise_affine=True)
              (attn): AttentionCl(
                (qkv): Linear(in_features=512, out_features=1536, bias=True)
                (rel_pos): RelPosBiasTf()
                (attn_drop): Dropout(p=0.0, inplace=False)
                (proj): Linear(in_features=512, out_features=512, bias=True)
                (proj_drop): Dropout(p=0.0, inplace=False)
              )
              (ls1): Identity()
              (drop_path1): Identity()
              (norm2): LayerNorm((512,), eps=1e-05, elementwise_affine=True)
              (mlp): Mlp(
                (fc1): Linear(in_features=512, out_features=2048, bias=True)
                (act): GELUTanh()
                (drop1): Dropout(p=0.0, inplace=False)
                (norm): Identity()
                (fc2): Linear(in_features=2048, out_features=512, bias=True)
                (drop2): Dropout(p=0.0, inplace=False)
              )
              (ls2): Identity()
              (drop_path2): Identity()
            )
            (attn_grid): PartitionAttentionCl(
              (norm1): LayerNorm((512,), eps=1e-05, elementwise_affine=True)
              (attn): AttentionCl(
                (qkv): Linear(in_features=512, out_features=1536, bias=True)
                (rel_pos): RelPosBiasTf()
                (attn_drop): Dropout(p=0.0, inplace=False)
                (proj): Linear(in_features=512, out_features=512, bias=True)
                (proj_drop): Dropout(p=0.0, inplace=False)
              )
              (ls1): Identity()
              (drop_path1): Identity()
              (norm2): LayerNorm((512,), eps=1e-05, elementwise_affine=True)
              (mlp): Mlp(
                (fc1): Linear(in_features=512, out_features=2048, bias=True)
                (act): GELUTanh()
                (drop1): Dropout(p=0.0, inplace=False)
                (norm): Identity()
                (fc2): Linear(in_features=2048, out_features=512, bias=True)
                (drop2): Dropout(p=0.0, inplace=False)
              )
              (ls2): Identity()
              (drop_path2): Identity()
            )
          )
          (5): MaxxVitBlock(
            (conv): MbConvBlock(
              (shortcut): Identity()
              (pre_norm): BatchNormAct2d(
                512, eps=0.001, momentum=0.1, affine=True, track_running_stats=True
                (drop): Identity()
                (act): Identity()
              )
              (down): Identity()
              (conv1_1x1): Conv2d(512, 2048, kernel_size=(1, 1), stride=(1, 1), bias=False)
              (norm1): BatchNormAct2d(
                2048, eps=0.001, momentum=0.1, affine=True, track_running_stats=True
                (drop): Identity()
                (act): GELUTanh()
              )
              (conv2_kxk): Conv2d(2048, 2048, kernel_size=(3, 3), stride=(1, 1), padding=(1, 1), groups=2048, bias=False)
              (norm2): BatchNormAct2d(
                2048, eps=0.001, momentum=0.1, affine=True, track_running_stats=True
                (drop): Identity()
                (act): GELUTanh()
              )
              (se): SEModule(
                (fc1): Conv2d(2048, 128, kernel_size=(1, 1), stride=(1, 1))
                (bn): Identity()
                (act): SiLU(inplace=True)
                (fc2): Conv2d(128, 2048, kernel_size=(1, 1), stride=(1, 1))
                (gate): Sigmoid()
              )
              (conv3_1x1): Conv2d(2048, 512, kernel_size=(1, 1), stride=(1, 1))
              (drop_path): Identity()
            )
            (attn_block): PartitionAttentionCl(
              (norm1): LayerNorm((512,), eps=1e-05, elementwise_affine=True)
              (attn): AttentionCl(
                (qkv): Linear(in_features=512, out_features=1536, bias=True)
                (rel_pos): RelPosBiasTf()
                (attn_drop): Dropout(p=0.0, inplace=False)
                (proj): Linear(in_features=512, out_features=512, bias=True)
                (proj_drop): Dropout(p=0.0, inplace=False)
              )
              (ls1): Identity()
              (drop_path1): Identity()
              (norm2): LayerNorm((512,), eps=1e-05, elementwise_affine=True)
              (mlp): Mlp(
                (fc1): Linear(in_features=512, out_features=2048, bias=True)
                (act): GELUTanh()
                (drop1): Dropout(p=0.0, inplace=False)
                (norm): Identity()
                (fc2): Linear(in_features=2048, out_features=512, bias=True)
                (drop2): Dropout(p=0.0, inplace=False)
              )
              (ls2): Identity()
              (drop_path2): Identity()
            )
            (attn_grid): PartitionAttentionCl(
              (norm1): LayerNorm((512,), eps=1e-05, elementwise_affine=True)
              (attn): AttentionCl(
                (qkv): Linear(in_features=512, out_features=1536, bias=True)
                (rel_pos): RelPosBiasTf()
                (attn_drop): Dropout(p=0.0, inplace=False)
                (proj): Linear(in_features=512, out_features=512, bias=True)
                (proj_drop): Dropout(p=0.0, inplace=False)
              )
              (ls1): Identity()
              (drop_path1): Identity()
              (norm2): LayerNorm((512,), eps=1e-05, elementwise_affine=True)
              (mlp): Mlp(
                (fc1): Linear(in_features=512, out_features=2048, bias=True)
                (act): GELUTanh()
                (drop1): Dropout(p=0.0, inplace=False)
                (norm): Identity()
                (fc2): Linear(in_features=2048, out_features=512, bias=True)
                (drop2): Dropout(p=0.0, inplace=False)
              )
              (ls2): Identity()
              (drop_path2): Identity()
            )
          )
          (6): MaxxVitBlock(
            (conv): MbConvBlock(
              (shortcut): Identity()
              (pre_norm): BatchNormAct2d(
                512, eps=0.001, momentum=0.1, affine=True, track_running_stats=True
                (drop): Identity()
                (act): Identity()
              )
              (down): Identity()
              (conv1_1x1): Conv2d(512, 2048, kernel_size=(1, 1), stride=(1, 1), bias=False)
              (norm1): BatchNormAct2d(
                2048, eps=0.001, momentum=0.1, affine=True, track_running_stats=True
                (drop): Identity()
                (act): GELUTanh()
              )
              (conv2_kxk): Conv2d(2048, 2048, kernel_size=(3, 3), stride=(1, 1), padding=(1, 1), groups=2048, bias=False)
              (norm2): BatchNormAct2d(
                2048, eps=0.001, momentum=0.1, affine=True, track_running_stats=True
                (drop): Identity()
                (act): GELUTanh()
              )
              (se): SEModule(
                (fc1): Conv2d(2048, 128, kernel_size=(1, 1), stride=(1, 1))
                (bn): Identity()
                (act): SiLU(inplace=True)
                (fc2): Conv2d(128, 2048, kernel_size=(1, 1), stride=(1, 1))
                (gate): Sigmoid()
              )
              (conv3_1x1): Conv2d(2048, 512, kernel_size=(1, 1), stride=(1, 1))
              (drop_path): Identity()
            )
            (attn_block): PartitionAttentionCl(
              (norm1): LayerNorm((512,), eps=1e-05, elementwise_affine=True)
              (attn): AttentionCl(
                (qkv): Linear(in_features=512, out_features=1536, bias=True)
                (rel_pos): RelPosBiasTf()
                (attn_drop): Dropout(p=0.0, inplace=False)
                (proj): Linear(in_features=512, out_features=512, bias=True)
                (proj_drop): Dropout(p=0.0, inplace=False)
              )
              (ls1): Identity()
              (drop_path1): Identity()
              (norm2): LayerNorm((512,), eps=1e-05, elementwise_affine=True)
              (mlp): Mlp(
                (fc1): Linear(in_features=512, out_features=2048, bias=True)
                (act): GELUTanh()
                (drop1): Dropout(p=0.0, inplace=False)
                (norm): Identity()
                (fc2): Linear(in_features=2048, out_features=512, bias=True)
                (drop2): Dropout(p=0.0, inplace=False)
              )
              (ls2): Identity()
              (drop_path2): Identity()
            )
            (attn_grid): PartitionAttentionCl(
              (norm1): LayerNorm((512,), eps=1e-05, elementwise_affine=True)
              (attn): AttentionCl(
                (qkv): Linear(in_features=512, out_features=1536, bias=True)
                (rel_pos): RelPosBiasTf()
                (attn_drop): Dropout(p=0.0, inplace=False)
                (proj): Linear(in_features=512, out_features=512, bias=True)
                (proj_drop): Dropout(p=0.0, inplace=False)
              )
              (ls1): Identity()
              (drop_path1): Identity()
              (norm2): LayerNorm((512,), eps=1e-05, elementwise_affine=True)
              (mlp): Mlp(
                (fc1): Linear(in_features=512, out_features=2048, bias=True)
                (act): GELUTanh()
                (drop1): Dropout(p=0.0, inplace=False)
                (norm): Identity()
                (fc2): Linear(in_features=2048, out_features=512, bias=True)
                (drop2): Dropout(p=0.0, inplace=False)
              )
              (ls2): Identity()
              (drop_path2): Identity()
            )
          )
          (7): MaxxVitBlock(
            (conv): MbConvBlock(
              (shortcut): Identity()
              (pre_norm): BatchNormAct2d(
                512, eps=0.001, momentum=0.1, affine=True, track_running_stats=True
                (drop): Identity()
                (act): Identity()
              )
              (down): Identity()
              (conv1_1x1): Conv2d(512, 2048, kernel_size=(1, 1), stride=(1, 1), bias=False)
              (norm1): BatchNormAct2d(
                2048, eps=0.001, momentum=0.1, affine=True, track_running_stats=True
                (drop): Identity()
                (act): GELUTanh()
              )
              (conv2_kxk): Conv2d(2048, 2048, kernel_size=(3, 3), stride=(1, 1), padding=(1, 1), groups=2048, bias=False)
              (norm2): BatchNormAct2d(
                2048, eps=0.001, momentum=0.1, affine=True, track_running_stats=True
                (drop): Identity()
                (act): GELUTanh()
              )
              (se): SEModule(
                (fc1): Conv2d(2048, 128, kernel_size=(1, 1), stride=(1, 1))
                (bn): Identity()
                (act): SiLU(inplace=True)
                (fc2): Conv2d(128, 2048, kernel_size=(1, 1), stride=(1, 1))
                (gate): Sigmoid()
              )
              (conv3_1x1): Conv2d(2048, 512, kernel_size=(1, 1), stride=(1, 1))
              (drop_path): Identity()
            )
            (attn_block): PartitionAttentionCl(
              (norm1): LayerNorm((512,), eps=1e-05, elementwise_affine=True)
              (attn): AttentionCl(
                (qkv): Linear(in_features=512, out_features=1536, bias=True)
                (rel_pos): RelPosBiasTf()
                (attn_drop): Dropout(p=0.0, inplace=False)
                (proj): Linear(in_features=512, out_features=512, bias=True)
                (proj_drop): Dropout(p=0.0, inplace=False)
              )
              (ls1): Identity()
              (drop_path1): Identity()
              (norm2): LayerNorm((512,), eps=1e-05, elementwise_affine=True)
              (mlp): Mlp(
                (fc1): Linear(in_features=512, out_features=2048, bias=True)
                (act): GELUTanh()
                (drop1): Dropout(p=0.0, inplace=False)
                (norm): Identity()
                (fc2): Linear(in_features=2048, out_features=512, bias=True)
                (drop2): Dropout(p=0.0, inplace=False)
              )
              (ls2): Identity()
              (drop_path2): Identity()
            )
            (attn_grid): PartitionAttentionCl(
              (norm1): LayerNorm((512,), eps=1e-05, elementwise_affine=True)
              (attn): AttentionCl(
                (qkv): Linear(in_features=512, out_features=1536, bias=True)
                (rel_pos): RelPosBiasTf()
                (attn_drop): Dropout(p=0.0, inplace=False)
                (proj): Linear(in_features=512, out_features=512, bias=True)
                (proj_drop): Dropout(p=0.0, inplace=False)
              )
              (ls1): Identity()
              (drop_path1): Identity()
              (norm2): LayerNorm((512,), eps=1e-05, elementwise_affine=True)
              (mlp): Mlp(
                (fc1): Linear(in_features=512, out_features=2048, bias=True)
                (act): GELUTanh()
                (drop1): Dropout(p=0.0, inplace=False)
                (norm): Identity()
                (fc2): Linear(in_features=2048, out_features=512, bias=True)
                (drop2): Dropout(p=0.0, inplace=False)
              )
              (ls2): Identity()
              (drop_path2): Identity()
            )
          )
          (8): MaxxVitBlock(
            (conv): MbConvBlock(
              (shortcut): Identity()
              (pre_norm): BatchNormAct2d(
                512, eps=0.001, momentum=0.1, affine=True, track_running_stats=True
                (drop): Identity()
                (act): Identity()
              )
              (down): Identity()
              (conv1_1x1): Conv2d(512, 2048, kernel_size=(1, 1), stride=(1, 1), bias=False)
              (norm1): BatchNormAct2d(
                2048, eps=0.001, momentum=0.1, affine=True, track_running_stats=True
                (drop): Identity()
                (act): GELUTanh()
              )
              (conv2_kxk): Conv2d(2048, 2048, kernel_size=(3, 3), stride=(1, 1), padding=(1, 1), groups=2048, bias=False)
              (norm2): BatchNormAct2d(
                2048, eps=0.001, momentum=0.1, affine=True, track_running_stats=True
                (drop): Identity()
                (act): GELUTanh()
              )
              (se): SEModule(
                (fc1): Conv2d(2048, 128, kernel_size=(1, 1), stride=(1, 1))
                (bn): Identity()
                (act): SiLU(inplace=True)
                (fc2): Conv2d(128, 2048, kernel_size=(1, 1), stride=(1, 1))
                (gate): Sigmoid()
              )
              (conv3_1x1): Conv2d(2048, 512, kernel_size=(1, 1), stride=(1, 1))
              (drop_path): Identity()
            )
            (attn_block): PartitionAttentionCl(
              (norm1): LayerNorm((512,), eps=1e-05, elementwise_affine=True)
              (attn): AttentionCl(
                (qkv): Linear(in_features=512, out_features=1536, bias=True)
                (rel_pos): RelPosBiasTf()
                (attn_drop): Dropout(p=0.0, inplace=False)
                (proj): Linear(in_features=512, out_features=512, bias=True)
                (proj_drop): Dropout(p=0.0, inplace=False)
              )
              (ls1): Identity()
              (drop_path1): Identity()
              (norm2): LayerNorm((512,), eps=1e-05, elementwise_affine=True)
              (mlp): Mlp(
                (fc1): Linear(in_features=512, out_features=2048, bias=True)
                (act): GELUTanh()
                (drop1): Dropout(p=0.0, inplace=False)
                (norm): Identity()
                (fc2): Linear(in_features=2048, out_features=512, bias=True)
                (drop2): Dropout(p=0.0, inplace=False)
              )
              (ls2): Identity()
              (drop_path2): Identity()
            )
            (attn_grid): PartitionAttentionCl(
              (norm1): LayerNorm((512,), eps=1e-05, elementwise_affine=True)
              (attn): AttentionCl(
                (qkv): Linear(in_features=512, out_features=1536, bias=True)
                (rel_pos): RelPosBiasTf()
                (attn_drop): Dropout(p=0.0, inplace=False)
                (proj): Linear(in_features=512, out_features=512, bias=True)
                (proj_drop): Dropout(p=0.0, inplace=False)
              )
              (ls1): Identity()
              (drop_path1): Identity()
              (norm2): LayerNorm((512,), eps=1e-05, elementwise_affine=True)
              (mlp): Mlp(
                (fc1): Linear(in_features=512, out_features=2048, bias=True)
                (act): GELUTanh()
                (drop1): Dropout(p=0.0, inplace=False)
                (norm): Identity()
                (fc2): Linear(in_features=2048, out_features=512, bias=True)
                (drop2): Dropout(p=0.0, inplace=False)
              )
              (ls2): Identity()
              (drop_path2): Identity()
            )
          )
          (9): MaxxVitBlock(
            (conv): MbConvBlock(
              (shortcut): Identity()
              (pre_norm): BatchNormAct2d(
                512, eps=0.001, momentum=0.1, affine=True, track_running_stats=True
                (drop): Identity()
                (act): Identity()
              )
              (down): Identity()
              (conv1_1x1): Conv2d(512, 2048, kernel_size=(1, 1), stride=(1, 1), bias=False)
              (norm1): BatchNormAct2d(
                2048, eps=0.001, momentum=0.1, affine=True, track_running_stats=True
                (drop): Identity()
                (act): GELUTanh()
              )
              (conv2_kxk): Conv2d(2048, 2048, kernel_size=(3, 3), stride=(1, 1), padding=(1, 1), groups=2048, bias=False)
              (norm2): BatchNormAct2d(
                2048, eps=0.001, momentum=0.1, affine=True, track_running_stats=True
                (drop): Identity()
                (act): GELUTanh()
              )
              (se): SEModule(
                (fc1): Conv2d(2048, 128, kernel_size=(1, 1), stride=(1, 1))
                (bn): Identity()
                (act): SiLU(inplace=True)
                (fc2): Conv2d(128, 2048, kernel_size=(1, 1), stride=(1, 1))
                (gate): Sigmoid()
              )
              (conv3_1x1): Conv2d(2048, 512, kernel_size=(1, 1), stride=(1, 1))
              (drop_path): Identity()
            )
            (attn_block): PartitionAttentionCl(
              (norm1): LayerNorm((512,), eps=1e-05, elementwise_affine=True)
              (attn): AttentionCl(
                (qkv): Linear(in_features=512, out_features=1536, bias=True)
                (rel_pos): RelPosBiasTf()
                (attn_drop): Dropout(p=0.0, inplace=False)
                (proj): Linear(in_features=512, out_features=512, bias=True)
                (proj_drop): Dropout(p=0.0, inplace=False)
              )
              (ls1): Identity()
              (drop_path1): Identity()
              (norm2): LayerNorm((512,), eps=1e-05, elementwise_affine=True)
              (mlp): Mlp(
                (fc1): Linear(in_features=512, out_features=2048, bias=True)
                (act): GELUTanh()
                (drop1): Dropout(p=0.0, inplace=False)
                (norm): Identity()
                (fc2): Linear(in_features=2048, out_features=512, bias=True)
                (drop2): Dropout(p=0.0, inplace=False)
              )
              (ls2): Identity()
              (drop_path2): Identity()
            )
            (attn_grid): PartitionAttentionCl(
              (norm1): LayerNorm((512,), eps=1e-05, elementwise_affine=True)
              (attn): AttentionCl(
                (qkv): Linear(in_features=512, out_features=1536, bias=True)
                (rel_pos): RelPosBiasTf()
                (attn_drop): Dropout(p=0.0, inplace=False)
                (proj): Linear(in_features=512, out_features=512, bias=True)
                (proj_drop): Dropout(p=0.0, inplace=False)
              )
              (ls1): Identity()
              (drop_path1): Identity()
              (norm2): LayerNorm((512,), eps=1e-05, elementwise_affine=True)
              (mlp): Mlp(
                (fc1): Linear(in_features=512, out_features=2048, bias=True)
                (act): GELUTanh()
                (drop1): Dropout(p=0.0, inplace=False)
                (norm): Identity()
                (fc2): Linear(in_features=2048, out_features=512, bias=True)
                (drop2): Dropout(p=0.0, inplace=False)
              )
              (ls2): Identity()
              (drop_path2): Identity()
            )
          )
          (10): MaxxVitBlock(
            (conv): MbConvBlock(
              (shortcut): Identity()
              (pre_norm): BatchNormAct2d(
                512, eps=0.001, momentum=0.1, affine=True, track_running_stats=True
                (drop): Identity()
                (act): Identity()
              )
              (down): Identity()
              (conv1_1x1): Conv2d(512, 2048, kernel_size=(1, 1), stride=(1, 1), bias=False)
              (norm1): BatchNormAct2d(
                2048, eps=0.001, momentum=0.1, affine=True, track_running_stats=True
                (drop): Identity()
                (act): GELUTanh()
              )
              (conv2_kxk): Conv2d(2048, 2048, kernel_size=(3, 3), stride=(1, 1), padding=(1, 1), groups=2048, bias=False)
              (norm2): BatchNormAct2d(
                2048, eps=0.001, momentum=0.1, affine=True, track_running_stats=True
                (drop): Identity()
                (act): GELUTanh()
              )
              (se): SEModule(
                (fc1): Conv2d(2048, 128, kernel_size=(1, 1), stride=(1, 1))
                (bn): Identity()
                (act): SiLU(inplace=True)
                (fc2): Conv2d(128, 2048, kernel_size=(1, 1), stride=(1, 1))
                (gate): Sigmoid()
              )
              (conv3_1x1): Conv2d(2048, 512, kernel_size=(1, 1), stride=(1, 1))
              (drop_path): Identity()
            )
            (attn_block): PartitionAttentionCl(
              (norm1): LayerNorm((512,), eps=1e-05, elementwise_affine=True)
              (attn): AttentionCl(
                (qkv): Linear(in_features=512, out_features=1536, bias=True)
                (rel_pos): RelPosBiasTf()
                (attn_drop): Dropout(p=0.0, inplace=False)
                (proj): Linear(in_features=512, out_features=512, bias=True)
                (proj_drop): Dropout(p=0.0, inplace=False)
              )
              (ls1): Identity()
              (drop_path1): Identity()
              (norm2): LayerNorm((512,), eps=1e-05, elementwise_affine=True)
              (mlp): Mlp(
                (fc1): Linear(in_features=512, out_features=2048, bias=True)
                (act): GELUTanh()
                (drop1): Dropout(p=0.0, inplace=False)
                (norm): Identity()
                (fc2): Linear(in_features=2048, out_features=512, bias=True)
                (drop2): Dropout(p=0.0, inplace=False)
              )
              (ls2): Identity()
              (drop_path2): Identity()
            )
            (attn_grid): PartitionAttentionCl(
              (norm1): LayerNorm((512,), eps=1e-05, elementwise_affine=True)
              (attn): AttentionCl(
                (qkv): Linear(in_features=512, out_features=1536, bias=True)
                (rel_pos): RelPosBiasTf()
                (attn_drop): Dropout(p=0.0, inplace=False)
                (proj): Linear(in_features=512, out_features=512, bias=True)
                (proj_drop): Dropout(p=0.0, inplace=False)
              )
              (ls1): Identity()
              (drop_path1): Identity()
              (norm2): LayerNorm((512,), eps=1e-05, elementwise_affine=True)
              (mlp): Mlp(
                (fc1): Linear(in_features=512, out_features=2048, bias=True)
                (act): GELUTanh()
                (drop1): Dropout(p=0.0, inplace=False)
                (norm): Identity()
                (fc2): Linear(in_features=2048, out_features=512, bias=True)
                (drop2): Dropout(p=0.0, inplace=False)
              )
              (ls2): Identity()
              (drop_path2): Identity()
            )
          )
          (11): MaxxVitBlock(
            (conv): MbConvBlock(
              (shortcut): Identity()
              (pre_norm): BatchNormAct2d(
                512, eps=0.001, momentum=0.1, affine=True, track_running_stats=True
                (drop): Identity()
                (act): Identity()
              )
              (down): Identity()
              (conv1_1x1): Conv2d(512, 2048, kernel_size=(1, 1), stride=(1, 1), bias=False)
              (norm1): BatchNormAct2d(
                2048, eps=0.001, momentum=0.1, affine=True, track_running_stats=True
                (drop): Identity()
                (act): GELUTanh()
              )
              (conv2_kxk): Conv2d(2048, 2048, kernel_size=(3, 3), stride=(1, 1), padding=(1, 1), groups=2048, bias=False)
              (norm2): BatchNormAct2d(
                2048, eps=0.001, momentum=0.1, affine=True, track_running_stats=True
                (drop): Identity()
                (act): GELUTanh()
              )
              (se): SEModule(
                (fc1): Conv2d(2048, 128, kernel_size=(1, 1), stride=(1, 1))
                (bn): Identity()
                (act): SiLU(inplace=True)
                (fc2): Conv2d(128, 2048, kernel_size=(1, 1), stride=(1, 1))
                (gate): Sigmoid()
              )
              (conv3_1x1): Conv2d(2048, 512, kernel_size=(1, 1), stride=(1, 1))
              (drop_path): Identity()
            )
            (attn_block): PartitionAttentionCl(
              (norm1): LayerNorm((512,), eps=1e-05, elementwise_affine=True)
              (attn): AttentionCl(
                (qkv): Linear(in_features=512, out_features=1536, bias=True)
                (rel_pos): RelPosBiasTf()
                (attn_drop): Dropout(p=0.0, inplace=False)
                (proj): Linear(in_features=512, out_features=512, bias=True)
                (proj_drop): Dropout(p=0.0, inplace=False)
              )
              (ls1): Identity()
              (drop_path1): Identity()
              (norm2): LayerNorm((512,), eps=1e-05, elementwise_affine=True)
              (mlp): Mlp(
                (fc1): Linear(in_features=512, out_features=2048, bias=True)
                (act): GELUTanh()
                (drop1): Dropout(p=0.0, inplace=False)
                (norm): Identity()
                (fc2): Linear(in_features=2048, out_features=512, bias=True)
                (drop2): Dropout(p=0.0, inplace=False)
              )
              (ls2): Identity()
              (drop_path2): Identity()
            )
            (attn_grid): PartitionAttentionCl(
              (norm1): LayerNorm((512,), eps=1e-05, elementwise_affine=True)
              (attn): AttentionCl(
                (qkv): Linear(in_features=512, out_features=1536, bias=True)
                (rel_pos): RelPosBiasTf()
                (attn_drop): Dropout(p=0.0, inplace=False)
                (proj): Linear(in_features=512, out_features=512, bias=True)
                (proj_drop): Dropout(p=0.0, inplace=False)
              )
              (ls1): Identity()
              (drop_path1): Identity()
              (norm2): LayerNorm((512,), eps=1e-05, elementwise_affine=True)
              (mlp): Mlp(
                (fc1): Linear(in_features=512, out_features=2048, bias=True)
                (act): GELUTanh()
                (drop1): Dropout(p=0.0, inplace=False)
                (norm): Identity()
                (fc2): Linear(in_features=2048, out_features=512, bias=True)
                (drop2): Dropout(p=0.0, inplace=False)
              )
              (ls2): Identity()
              (drop_path2): Identity()
            )
          )
          (12): MaxxVitBlock(
            (conv): MbConvBlock(
              (shortcut): Identity()
              (pre_norm): BatchNormAct2d(
                512, eps=0.001, momentum=0.1, affine=True, track_running_stats=True
                (drop): Identity()
                (act): Identity()
              )
              (down): Identity()
              (conv1_1x1): Conv2d(512, 2048, kernel_size=(1, 1), stride=(1, 1), bias=False)
              (norm1): BatchNormAct2d(
                2048, eps=0.001, momentum=0.1, affine=True, track_running_stats=True
                (drop): Identity()
                (act): GELUTanh()
              )
              (conv2_kxk): Conv2d(2048, 2048, kernel_size=(3, 3), stride=(1, 1), padding=(1, 1), groups=2048, bias=False)
              (norm2): BatchNormAct2d(
                2048, eps=0.001, momentum=0.1, affine=True, track_running_stats=True
                (drop): Identity()
                (act): GELUTanh()
              )
              (se): SEModule(
                (fc1): Conv2d(2048, 128, kernel_size=(1, 1), stride=(1, 1))
                (bn): Identity()
                (act): SiLU(inplace=True)
                (fc2): Conv2d(128, 2048, kernel_size=(1, 1), stride=(1, 1))
                (gate): Sigmoid()
              )
              (conv3_1x1): Conv2d(2048, 512, kernel_size=(1, 1), stride=(1, 1))
              (drop_path): Identity()
            )
            (attn_block): PartitionAttentionCl(
              (norm1): LayerNorm((512,), eps=1e-05, elementwise_affine=True)
              (attn): AttentionCl(
                (qkv): Linear(in_features=512, out_features=1536, bias=True)
                (rel_pos): RelPosBiasTf()
                (attn_drop): Dropout(p=0.0, inplace=False)
                (proj): Linear(in_features=512, out_features=512, bias=True)
                (proj_drop): Dropout(p=0.0, inplace=False)
              )
              (ls1): Identity()
              (drop_path1): Identity()
              (norm2): LayerNorm((512,), eps=1e-05, elementwise_affine=True)
              (mlp): Mlp(
                (fc1): Linear(in_features=512, out_features=2048, bias=True)
                (act): GELUTanh()
                (drop1): Dropout(p=0.0, inplace=False)
                (norm): Identity()
                (fc2): Linear(in_features=2048, out_features=512, bias=True)
                (drop2): Dropout(p=0.0, inplace=False)
              )
              (ls2): Identity()
              (drop_path2): Identity()
            )
            (attn_grid): PartitionAttentionCl(
              (norm1): LayerNorm((512,), eps=1e-05, elementwise_affine=True)
              (attn): AttentionCl(
                (qkv): Linear(in_features=512, out_features=1536, bias=True)
                (rel_pos): RelPosBiasTf()
                (attn_drop): Dropout(p=0.0, inplace=False)
                (proj): Linear(in_features=512, out_features=512, bias=True)
                (proj_drop): Dropout(p=0.0, inplace=False)
              )
              (ls1): Identity()
              (drop_path1): Identity()
              (norm2): LayerNorm((512,), eps=1e-05, elementwise_affine=True)
              (mlp): Mlp(
                (fc1): Linear(in_features=512, out_features=2048, bias=True)
                (act): GELUTanh()
                (drop1): Dropout(p=0.0, inplace=False)
                (norm): Identity()
                (fc2): Linear(in_features=2048, out_features=512, bias=True)
                (drop2): Dropout(p=0.0, inplace=False)
              )
              (ls2): Identity()
              (drop_path2): Identity()
            )
          )
          (13): MaxxVitBlock(
            (conv): MbConvBlock(
              (shortcut): Identity()
              (pre_norm): BatchNormAct2d(
                512, eps=0.001, momentum=0.1, affine=True, track_running_stats=True
                (drop): Identity()
                (act): Identity()
              )
              (down): Identity()
              (conv1_1x1): Conv2d(512, 2048, kernel_size=(1, 1), stride=(1, 1), bias=False)
              (norm1): BatchNormAct2d(
                2048, eps=0.001, momentum=0.1, affine=True, track_running_stats=True
                (drop): Identity()
                (act): GELUTanh()
              )
              (conv2_kxk): Conv2d(2048, 2048, kernel_size=(3, 3), stride=(1, 1), padding=(1, 1), groups=2048, bias=False)
              (norm2): BatchNormAct2d(
                2048, eps=0.001, momentum=0.1, affine=True, track_running_stats=True
                (drop): Identity()
                (act): GELUTanh()
              )
              (se): SEModule(
                (fc1): Conv2d(2048, 128, kernel_size=(1, 1), stride=(1, 1))
                (bn): Identity()
                (act): SiLU(inplace=True)
                (fc2): Conv2d(128, 2048, kernel_size=(1, 1), stride=(1, 1))
                (gate): Sigmoid()
              )
              (conv3_1x1): Conv2d(2048, 512, kernel_size=(1, 1), stride=(1, 1))
              (drop_path): Identity()
            )
            (attn_block): PartitionAttentionCl(
              (norm1): LayerNorm((512,), eps=1e-05, elementwise_affine=True)
              (attn): AttentionCl(
                (qkv): Linear(in_features=512, out_features=1536, bias=True)
                (rel_pos): RelPosBiasTf()
                (attn_drop): Dropout(p=0.0, inplace=False)
                (proj): Linear(in_features=512, out_features=512, bias=True)
                (proj_drop): Dropout(p=0.0, inplace=False)
              )
              (ls1): Identity()
              (drop_path1): Identity()
              (norm2): LayerNorm((512,), eps=1e-05, elementwise_affine=True)
              (mlp): Mlp(
                (fc1): Linear(in_features=512, out_features=2048, bias=True)
                (act): GELUTanh()
                (drop1): Dropout(p=0.0, inplace=False)
                (norm): Identity()
                (fc2): Linear(in_features=2048, out_features=512, bias=True)
                (drop2): Dropout(p=0.0, inplace=False)
              )
              (ls2): Identity()
              (drop_path2): Identity()
            )
            (attn_grid): PartitionAttentionCl(
              (norm1): LayerNorm((512,), eps=1e-05, elementwise_affine=True)
              (attn): AttentionCl(
                (qkv): Linear(in_features=512, out_features=1536, bias=True)
                (rel_pos): RelPosBiasTf()
                (attn_drop): Dropout(p=0.0, inplace=False)
                (proj): Linear(in_features=512, out_features=512, bias=True)
                (proj_drop): Dropout(p=0.0, inplace=False)
              )
              (ls1): Identity()
              (drop_path1): Identity()
              (norm2): LayerNorm((512,), eps=1e-05, elementwise_affine=True)
              (mlp): Mlp(
                (fc1): Linear(in_features=512, out_features=2048, bias=True)
                (act): GELUTanh()
                (drop1): Dropout(p=0.0, inplace=False)
                (norm): Identity()
                (fc2): Linear(in_features=2048, out_features=512, bias=True)
                (drop2): Dropout(p=0.0, inplace=False)
              )
              (ls2): Identity()
              (drop_path2): Identity()
            )
          )
        )
      )
      (3): MaxxVitStage(
        (blocks): Sequential(
          (0): MaxxVitBlock(
            (conv): MbConvBlock(
              (shortcut): Downsample2d(
                (pool): AvgPool2dSame(kernel_size=(2, 2), stride=(2, 2), padding=(0, 0))
                (expand): Conv2d(512, 1024, kernel_size=(1, 1), stride=(1, 1))
              )
              (pre_norm): BatchNormAct2d(
                512, eps=0.001, momentum=0.1, affine=True, track_running_stats=True
                (drop): Identity()
                (act): Identity()
              )
              (down): Identity()
              (conv1_1x1): Conv2d(512, 4096, kernel_size=(1, 1), stride=(1, 1), bias=False)
              (norm1): BatchNormAct2d(
                4096, eps=0.001, momentum=0.1, affine=True, track_running_stats=True
                (drop): Identity()
                (act): GELUTanh()
              )
              (conv2_kxk): Conv2dSame(4096, 4096, kernel_size=(3, 3), stride=(2, 2), groups=4096, bias=False)
              (norm2): BatchNormAct2d(
                4096, eps=0.001, momentum=0.1, affine=True, track_running_stats=True
                (drop): Identity()
                (act): GELUTanh()
              )
              (se): SEModule(
                (fc1): Conv2d(4096, 256, kernel_size=(1, 1), stride=(1, 1))
                (bn): Identity()
                (act): SiLU(inplace=True)
                (fc2): Conv2d(256, 4096, kernel_size=(1, 1), stride=(1, 1))
                (gate): Sigmoid()
              )
              (conv3_1x1): Conv2d(4096, 1024, kernel_size=(1, 1), stride=(1, 1))
              (drop_path): Identity()
            )
            (attn_block): PartitionAttentionCl(
              (norm1): LayerNorm((1024,), eps=1e-05, elementwise_affine=True)
              (attn): AttentionCl(
                (qkv): Linear(in_features=1024, out_features=3072, bias=True)
                (rel_pos): RelPosBiasTf()
                (attn_drop): Dropout(p=0.0, inplace=False)
                (proj): Linear(in_features=1024, out_features=1024, bias=True)
                (proj_drop): Dropout(p=0.0, inplace=False)
              )
              (ls1): Identity()
              (drop_path1): Identity()
              (norm2): LayerNorm((1024,), eps=1e-05, elementwise_affine=True)
              (mlp): Mlp(
                (fc1): Linear(in_features=1024, out_features=4096, bias=True)
                (act): GELUTanh()
                (drop1): Dropout(p=0.0, inplace=False)
                (norm): Identity()
                (fc2): Linear(in_features=4096, out_features=1024, bias=True)
                (drop2): Dropout(p=0.0, inplace=False)
              )
              (ls2): Identity()
              (drop_path2): Identity()
            )
            (attn_grid): PartitionAttentionCl(
              (norm1): LayerNorm((1024,), eps=1e-05, elementwise_affine=True)
              (attn): AttentionCl(
                (qkv): Linear(in_features=1024, out_features=3072, bias=True)
                (rel_pos): RelPosBiasTf()
                (attn_drop): Dropout(p=0.0, inplace=False)
                (proj): Linear(in_features=1024, out_features=1024, bias=True)
                (proj_drop): Dropout(p=0.0, inplace=False)
              )
              (ls1): Identity()
              (drop_path1): Identity()
              (norm2): LayerNorm((1024,), eps=1e-05, elementwise_affine=True)
              (mlp): Mlp(
                (fc1): Linear(in_features=1024, out_features=4096, bias=True)
                (act): GELUTanh()
                (drop1): Dropout(p=0.0, inplace=False)
                (norm): Identity()
                (fc2): Linear(in_features=4096, out_features=1024, bias=True)
                (drop2): Dropout(p=0.0, inplace=False)
              )
              (ls2): Identity()
              (drop_path2): Identity()
            )
          )
          (1): MaxxVitBlock(
            (conv): MbConvBlock(
              (shortcut): Identity()
              (pre_norm): BatchNormAct2d(
                1024, eps=0.001, momentum=0.1, affine=True, track_running_stats=True
                (drop): Identity()
                (act): Identity()
              )
              (down): Identity()
              (conv1_1x1): Conv2d(1024, 4096, kernel_size=(1, 1), stride=(1, 1), bias=False)
              (norm1): BatchNormAct2d(
                4096, eps=0.001, momentum=0.1, affine=True, track_running_stats=True
                (drop): Identity()
                (act): GELUTanh()
              )
              (conv2_kxk): Conv2d(4096, 4096, kernel_size=(3, 3), stride=(1, 1), padding=(1, 1), groups=4096, bias=False)
              (norm2): BatchNormAct2d(
                4096, eps=0.001, momentum=0.1, affine=True, track_running_stats=True
                (drop): Identity()
                (act): GELUTanh()
              )
              (se): SEModule(
                (fc1): Conv2d(4096, 256, kernel_size=(1, 1), stride=(1, 1))
                (bn): Identity()
                (act): SiLU(inplace=True)
                (fc2): Conv2d(256, 4096, kernel_size=(1, 1), stride=(1, 1))
                (gate): Sigmoid()
              )
              (conv3_1x1): Conv2d(4096, 1024, kernel_size=(1, 1), stride=(1, 1))
              (drop_path): Identity()
            )
            (attn_block): PartitionAttentionCl(
              (norm1): LayerNorm((1024,), eps=1e-05, elementwise_affine=True)
              (attn): AttentionCl(
                (qkv): Linear(in_features=1024, out_features=3072, bias=True)
                (rel_pos): RelPosBiasTf()
                (attn_drop): Dropout(p=0.0, inplace=False)
                (proj): Linear(in_features=1024, out_features=1024, bias=True)
                (proj_drop): Dropout(p=0.0, inplace=False)
              )
              (ls1): Identity()
              (drop_path1): Identity()
              (norm2): LayerNorm((1024,), eps=1e-05, elementwise_affine=True)
              (mlp): Mlp(
                (fc1): Linear(in_features=1024, out_features=4096, bias=True)
                (act): GELUTanh()
                (drop1): Dropout(p=0.0, inplace=False)
                (norm): Identity()
                (fc2): Linear(in_features=4096, out_features=1024, bias=True)
                (drop2): Dropout(p=0.0, inplace=False)
              )
              (ls2): Identity()
              (drop_path2): Identity()
            )
            (attn_grid): PartitionAttentionCl(
              (norm1): LayerNorm((1024,), eps=1e-05, elementwise_affine=True)
              (attn): AttentionCl(
                (qkv): Linear(in_features=1024, out_features=3072, bias=True)
                (rel_pos): RelPosBiasTf()
                (attn_drop): Dropout(p=0.0, inplace=False)
                (proj): Linear(in_features=1024, out_features=1024, bias=True)
                (proj_drop): Dropout(p=0.0, inplace=False)
              )
              (ls1): Identity()
              (drop_path1): Identity()
              (norm2): LayerNorm((1024,), eps=1e-05, elementwise_affine=True)
              (mlp): Mlp(
                (fc1): Linear(in_features=1024, out_features=4096, bias=True)
                (act): GELUTanh()
                (drop1): Dropout(p=0.0, inplace=False)
                (norm): Identity()
                (fc2): Linear(in_features=4096, out_features=1024, bias=True)
                (drop2): Dropout(p=0.0, inplace=False)
              )
              (ls2): Identity()
              (drop_path2): Identity()
            )
          )
        )
      )
    )
    (norm): Identity()
    (head): NormMlpClassifierHead(
      (global_pool): SelectAdaptivePool2d (pool_type=avg, flatten=Identity())
      (norm): LayerNorm2d((1024,), eps=1e-05, elementwise_affine=True)
      (flatten): Flatten(start_dim=1, end_dim=-1)
      (pre_logits): Sequential(
        (fc): Linear(in_features=1024, out_features=1024, bias=True)
        (act): Tanh()
      )
      (drop): Dropout(p=0.0, inplace=False)
      (fc): Identity()
    )
  )
  (heads): ModuleList(
    (0-13): 14 x Linear(in_features=1024, out_features=384, bias=True)
  )
  (heads2): ModuleList(
    (0-13): 14 x Linear(in_features=384, out_features=48, bias=True)
  )
  (heads3): ModuleList(
    (0-13): 14 x Linear(in_features=48, out_features=48, bias=True)
…
