…
    NAME: adamw
  START_EPOCH: 0
  USE_CHECKPOINT: false
  WARMUP_EPOCHS: 20
  WARMUP_LR: 3.125e-08
  WEIGHT_DECAY: 0.05

[2023-08-06 01:53:39 maxvit_small_tf_384.in1k] (main.py 91): INFO Creating model:maxvit/maxvit_small_tf_384.in1k
[2023-08-06 01:53:40 maxvit_small_tf_384.in1k] (main.py 94): INFO MaxVitTransformer(
  (model): MaxxVit(
    (stem): Stem(
      (conv1): Conv2dSame(3, 64, kernel_size=(3, 3), stride=(2, 2))
      (norm1): BatchNormAct2d(
        64, eps=0.001, momentum=0.1, affine=True, track_running_stats=True
        (drop): Identity()
        (act): GELUTanh()
      )
      (conv2): Conv2d(64, 64, kernel_size=(3, 3), stride=(1, 1), padding=(1, 1))
    )
    (stages): Sequential(
      (0): MaxxVitStage(
        (blocks): Sequential(
          (0): MaxxVitBlock(
            (conv): MbConvBlock(
              (shortcut): Downsample2d(
                (pool): AvgPool2dSame(kernel_size=(2, 2), stride=(2, 2), padding=(0, 0))
                (expand): Conv2d(64, 96, kernel_size=(1, 1), stride=(1, 1))
              )
              (pre_norm): BatchNormAct2d(
                64, eps=0.001, momentum=0.1, affine=True, track_running_stats=True
                (drop): Identity()
                (act): Identity()
              )
              (down): Identity()
              (conv1_1x1): Conv2d(64, 384, kernel_size=(1, 1), stride=(1, 1), bias=False)
              (norm1): BatchNormAct2d(
                384, eps=0.001, momentum=0.1, affine=True, track_running_stats=True
                (drop): Identity()
                (act): GELUTanh()
              )
              (conv2_kxk): Conv2dSame(384, 384, kernel_size=(3, 3), stride=(2, 2), groups=384, bias=False)
              (norm2): BatchNormAct2d(
                384, eps=0.001, momentum=0.1, affine=True, track_running_stats=True
                (drop): Identity()
                (act): GELUTanh()
              )
              (se): SEModule(
                (fc1): Conv2d(384, 24, kernel_size=(1, 1), stride=(1, 1))
                (bn): Identity()
                (act): SiLU(inplace=True)
                (fc2): Conv2d(24, 384, kernel_size=(1, 1), stride=(1, 1))
                (gate): Sigmoid()
              )
              (conv3_1x1): Conv2d(384, 96, kernel_size=(1, 1), stride=(1, 1))
              (drop_path): Identity()
            )
            (attn_block): PartitionAttentionCl(
              (norm1): LayerNorm((96,), eps=1e-05, elementwise_affine=True)
              (attn): AttentionCl(
                (qkv): Linear(in_features=96, out_features=288, bias=True)
                (rel_pos): RelPosBiasTf()
                (attn_drop): Dropout(p=0.0, inplace=False)
                (proj): Linear(in_features=96, out_features=96, bias=True)
                (proj_drop): Dropout(p=0.0, inplace=False)
              )
              (ls1): Identity()
              (drop_path1): Identity()
              (norm2): LayerNorm((96,), eps=1e-05, elementwise_affine=True)
              (mlp): Mlp(
                (fc1): Linear(in_features=96, out_features=384, bias=True)
                (act): GELUTanh()
                (drop1): Dropout(p=0.0, inplace=False)
                (norm): Identity()
                (fc2): Linear(in_features=384, out_features=96, bias=True)
                (drop2): Dropout(p=0.0, inplace=False)
              )
              (ls2): Identity()
              (drop_path2): Identity()
            )
            (attn_grid): PartitionAttentionCl(
              (norm1): LayerNorm((96,), eps=1e-05, elementwise_affine=True)
              (attn): AttentionCl(
                (qkv): Linear(in_features=96, out_features=288, bias=True)
                (rel_pos): RelPosBiasTf()
                (attn_drop): Dropout(p=0.0, inplace=False)
                (proj): Linear(in_features=96, out_features=96, bias=True)
                (proj_drop): Dropout(p=0.0, inplace=False)
              )
              (ls1): Identity()
              (drop_path1): Identity()
              (norm2): LayerNorm((96,), eps=1e-05, elementwise_affine=True)
              (mlp): Mlp(
                (fc1): Linear(in_features=96, out_features=384, bias=True)
                (act): GELUTanh()
                (drop1): Dropout(p=0.0, inplace=False)
                (norm): Identity()
                (fc2): Linear(in_features=384, out_features=96, bias=True)
                (drop2): Dropout(p=0.0, inplace=False)
              )
              (ls2): Identity()
              (drop_path2): Identity()
            )
          )
          (1): MaxxVitBlock(
            (conv): MbConvBlock(
              (shortcut): Identity()
              (pre_norm): BatchNormAct2d(
                96, eps=0.001, momentum=0.1, affine=True, track_running_stats=True
                (drop): Identity()
                (act): Identity()
              )
              (down): Identity()
              (conv1_1x1): Conv2d(96, 384, kernel_size=(1, 1), stride=(1, 1), bias=False)
              (norm1): BatchNormAct2d(
                384, eps=0.001, momentum=0.1, affine=True, track_running_stats=True
                (drop): Identity()
                (act): GELUTanh()
              )
              (conv2_kxk): Conv2d(384, 384, kernel_size=(3, 3), stride=(1, 1), padding=(1, 1), groups=384, bias=False)
              (norm2): BatchNormAct2d(
                384, eps=0.001, momentum=0.1, affine=True, track_running_stats=True
                (drop): Identity()
                (act): GELUTanh()
              )
              (se): SEModule(
                (fc1): Conv2d(384, 24, kernel_size=(1, 1), stride=(1, 1))
                (bn): Identity()
                (act): SiLU(inplace=True)
                (fc2): Conv2d(24, 384, kernel_size=(1, 1), stride=(1, 1))
                (gate): Sigmoid()
              )
              (conv3_1x1): Conv2d(384, 96, kernel_size=(1, 1), stride=(1, 1))
              (drop_path): Identity()
            )
            (attn_block): PartitionAttentionCl(
              (norm1): LayerNorm((96,), eps=1e-05, elementwise_affine=True)
              (attn): AttentionCl(
                (qkv): Linear(in_features=96, out_features=288, bias=True)
                (rel_pos): RelPosBiasTf()
                (attn_drop): Dropout(p=0.0, inplace=False)
                (proj): Linear(in_features=96, out_features=96, bias=True)
                (proj_drop): Dropout(p=0.0, inplace=False)
              )
              (ls1): Identity()
              (drop_path1): Identity()
              (norm2): LayerNorm((96,), eps=1e-05, elementwise_affine=True)
              (mlp): Mlp(
                (fc1): Linear(in_features=96, out_features=384, bias=True)
                (act): GELUTanh()
                (drop1): Dropout(p=0.0, inplace=False)
                (norm): Identity()
                (fc2): Linear(in_features=384, out_features=96, bias=True)
                (drop2): Dropout(p=0.0, inplace=False)
              )
              (ls2): Identity()
              (drop_path2): Identity()
            )
            (attn_grid): PartitionAttentionCl(
              (norm1): LayerNorm((96,), eps=1e-05, elementwise_affine=True)
              (attn): AttentionCl(
                (qkv): Linear(in_features=96, out_features=288, bias=True)
                (rel_pos): RelPosBiasTf()
                (attn_drop): Dropout(p=0.0, inplace=False)
                (proj): Linear(in_features=96, out_features=96, bias=True)
                (proj_drop): Dropout(p=0.0, inplace=False)
              )
              (ls1): Identity()
              (drop_path1): Identity()
              (norm2): LayerNorm((96,), eps=1e-05, elementwise_affine=True)
              (mlp): Mlp(
                (fc1): Linear(in_features=96, out_features=384, bias=True)
                (act): GELUTanh()
                (drop1): Dropout(p=0.0, inplace=False)
                (norm): Identity()
                (fc2): Linear(in_features=384, out_features=96, bias=True)
                (drop2): Dropout(p=0.0, inplace=False)
              )
              (ls2): Identity()
              (drop_path2): Identity()
            )
          )
        )
      )
      (1): MaxxVitStage(
        (blocks): Sequential(
          (0): MaxxVitBlock(
            (conv): MbConvBlock(
              (shortcut): Downsample2d(
                (pool): AvgPool2dSame(kernel_size=(2, 2), stride=(2, 2), padding=(0, 0))
                (expand): Conv2d(96, 192, kernel_size=(1, 1), stride=(1, 1))
              )
              (pre_norm): BatchNormAct2d(
                96, eps=0.001, momentum=0.1, affine=True, track_running_stats=True
                (drop): Identity()
                (act): Identity()
              )
              (down): Identity()
              (conv1_1x1): Conv2d(96, 768, kernel_size=(1, 1), stride=(1, 1), bias=False)
              (norm1): BatchNormAct2d(
                768, eps=0.001, momentum=0.1, affine=True, track_running_stats=True
                (drop): Identity()
                (act): GELUTanh()
              )
              (conv2_kxk): Conv2dSame(768, 768, kernel_size=(3, 3), stride=(2, 2), groups=768, bias=False)
              (norm2): BatchNormAct2d(
                768, eps=0.001, momentum=0.1, affine=True, track_running_stats=True
                (drop): Identity()
                (act): GELUTanh()
              )
              (se): SEModule(
                (fc1): Conv2d(768, 48, kernel_size=(1, 1), stride=(1, 1))
                (bn): Identity()
                (act): SiLU(inplace=True)
                (fc2): Conv2d(48, 768, kernel_size=(1, 1), stride=(1, 1))
                (gate): Sigmoid()
              )
              (conv3_1x1): Conv2d(768, 192, kernel_size=(1, 1), stride=(1, 1))
              (drop_path): Identity()
            )
            (attn_block): PartitionAttentionCl(
              (norm1): LayerNorm((192,), eps=1e-05, elementwise_affine=True)
              (attn): AttentionCl(
                (qkv): Linear(in_features=192, out_features=576, bias=True)
                (rel_pos): RelPosBiasTf()
                (attn_drop): Dropout(p=0.0, inplace=False)
                (proj): Linear(in_features=192, out_features=192, bias=True)
                (proj_drop): Dropout(p=0.0, inplace=False)
              )
              (ls1): Identity()
              (drop_path1): Identity()
              (norm2): LayerNorm((192,), eps=1e-05, elementwise_affine=True)
              (mlp): Mlp(
                (fc1): Linear(in_features=192, out_features=768, bias=True)
                (act): GELUTanh()
                (drop1): Dropout(p=0.0, inplace=False)
                (norm): Identity()
                (fc2): Linear(in_features=768, out_features=192, bias=True)
                (drop2): Dropout(p=0.0, inplace=False)
              )
              (ls2): Identity()
              (drop_path2): Identity()
            )
            (attn_grid): PartitionAttentionCl(
              (norm1): LayerNorm((192,), eps=1e-05, elementwise_affine=True)
              (attn): AttentionCl(
                (qkv): Linear(in_features=192, out_features=576, bias=True)
                (rel_pos): RelPosBiasTf()
                (attn_drop): Dropout(p=0.0, inplace=False)
                (proj): Linear(in_features=192, out_features=192, bias=True)
                (proj_drop): Dropout(p=0.0, inplace=False)
              )
              (ls1): Identity()
              (drop_path1): Identity()
              (norm2): LayerNorm((192,), eps=1e-05, elementwise_affine=True)
              (mlp): Mlp(
                (fc1): Linear(in_features=192, out_features=768, bias=True)
                (act): GELUTanh()
                (drop1): Dropout(p=0.0, inplace=False)
                (norm): Identity()
                (fc2): Linear(in_features=768, out_features=192, bias=True)
                (drop2): Dropout(p=0.0, inplace=False)
              )
              (ls2): Identity()
              (drop_path2): Identity()
            )
          )
          (1): MaxxVitBlock(
            (conv): MbConvBlock(
              (shortcut): Identity()
              (pre_norm): BatchNormAct2d(
                192, eps=0.001, momentum=0.1, affine=True, track_running_stats=True
                (drop): Identity()
                (act): Identity()
              )
              (down): Identity()
              (conv1_1x1): Conv2d(192, 768, kernel_size=(1, 1), stride=(1, 1), bias=False)
              (norm1): BatchNormAct2d(
                768, eps=0.001, momentum=0.1, affine=True, track_running_stats=True
                (drop): Identity()
                (act): GELUTanh()
              )
              (conv2_kxk): Conv2d(768, 768, kernel_size=(3, 3), stride=(1, 1), padding=(1, 1), groups=768, bias=False)
              (norm2): BatchNormAct2d(
                768, eps=0.001, momentum=0.1, affine=True, track_running_stats=True
                (drop): Identity()
                (act): GELUTanh()
              )
              (se): SEModule(
                (fc1): Conv2d(768, 48, kernel_size=(1, 1), stride=(1, 1))
                (bn): Identity()
                (act): SiLU(inplace=True)
                (fc2): Conv2d(48, 768, kernel_size=(1, 1), stride=(1, 1))
                (gate): Sigmoid()
              )
              (conv3_1x1): Conv2d(768, 192, kernel_size=(1, 1), stride=(1, 1))
              (drop_path): Identity()
            )
            (attn_block): PartitionAttentionCl(
              (norm1): LayerNorm((192,), eps=1e-05, elementwise_affine=True)
              (attn): AttentionCl(
                (qkv): Linear(in_features=192, out_features=576, bias=True)
                (rel_pos): RelPosBiasTf()
                (attn_drop): Dropout(p=0.0, inplace=False)
                (proj): Linear(in_features=192, out_features=192, bias=True)
                (proj_drop): Dropout(p=0.0, inplace=False)
              )
              (ls1): Identity()
              (drop_path1): Identity()
              (norm2): LayerNorm((192,), eps=1e-05, elementwise_affine=True)
              (mlp): Mlp(
                (fc1): Linear(in_features=192, out_features=768, bias=True)
                (act): GELUTanh()
                (drop1): Dropout(p=0.0, inplace=False)
                (norm): Identity()
                (fc2): Linear(in_features=768, out_features=192, bias=True)
                (drop2): Dropout(p=0.0, inplace=False)
              )
              (ls2): Identity()
              (drop_path2): Identity()
            )
            (attn_grid): PartitionAttentionCl(
              (norm1): LayerNorm((192,), eps=1e-05, elementwise_affine=True)
              (attn): AttentionCl(
                (qkv): Linear(in_features=192, out_features=576, bias=True)
                (rel_pos): RelPosBiasTf()
                (attn_drop): Dropout(p=0.0, inplace=False)
                (proj): Linear(in_features=192, out_features=192, bias=True)
                (proj_drop): Dropout(p=0.0, inplace=False)
              )
              (ls1): Identity()
              (drop_path1): Identity()
              (norm2): LayerNorm((192,), eps=1e-05, elementwise_affine=True)
              (mlp): Mlp(
                (fc1): Linear(in_features=192, out_features=768, bias=True)
                (act): GELUTanh()
                (drop1): Dropout(p=0.0, inplace=False)
                (norm): Identity()
                (fc2): Linear(in_features=768, out_features=192, bias=True)
                (drop2): Dropout(p=0.0, inplace=False)
              )
              (ls2): Identity()
              (drop_path2): Identity()
            )
          )
        )
      )
      (2): MaxxVitStage(
        (blocks): Sequential(
          (0): MaxxVitBlock(
            (conv): MbConvBlock(
              (shortcut): Downsample2d(
                (pool): AvgPool2dSame(kernel_size=(2, 2), stride=(2, 2), padding=(0, 0))
                (expand): Conv2d(192, 384, kernel_size=(1, 1), stride=(1, 1))
              )
              (pre_norm): BatchNormAct2d(
                192, eps=0.001, momentum=0.1, affine=True, track_running_stats=True
                (drop): Identity()
                (act): Identity()
              )
              (down): Identity()
              (conv1_1x1): Conv2d(192, 1536, kernel_size=(1, 1), stride=(1, 1), bias=False)
              (norm1): BatchNormAct2d(
                1536, eps=0.001, momentum=0.1, affine=True, track_running_stats=True
                (drop): Identity()
                (act): GELUTanh()
              )
              (conv2_kxk): Conv2dSame(1536, 1536, kernel_size=(3, 3), stride=(2, 2), groups=1536, bias=False)
              (norm2): BatchNormAct2d(
                1536, eps=0.001, momentum=0.1, affine=True, track_running_stats=True
                (drop): Identity()
                (act): GELUTanh()
              )
              (se): SEModule(
                (fc1): Conv2d(1536, 96, kernel_size=(1, 1), stride=(1, 1))
                (bn): Identity()
                (act): SiLU(inplace=True)
                (fc2): Conv2d(96, 1536, kernel_size=(1, 1), stride=(1, 1))
                (gate): Sigmoid()
              )
              (conv3_1x1): Conv2d(1536, 384, kernel_size=(1, 1), stride=(1, 1))
              (drop_path): Identity()
            )
            (attn_block): PartitionAttentionCl(
              (norm1): LayerNorm((384,), eps=1e-05, elementwise_affine=True)
              (attn): AttentionCl(
                (qkv): Linear(in_features=384, out_features=1152, bias=True)
                (rel_pos): RelPosBiasTf()
                (attn_drop): Dropout(p=0.0, inplace=False)
                (proj): Linear(in_features=384, out_features=384, bias=True)
                (proj_drop): Dropout(p=0.0, inplace=False)
              )
              (ls1): Identity()
              (drop_path1): Identity()
              (norm2): LayerNorm((384,), eps=1e-05, elementwise_affine=True)
              (mlp): Mlp(
                (fc1): Linear(in_features=384, out_features=1536, bias=True)
                (act): GELUTanh()
                (drop1): Dropout(p=0.0, inplace=False)
                (norm): Identity()
                (fc2): Linear(in_features=1536, out_features=384, bias=True)
                (drop2): Dropout(p=0.0, inplace=False)
              )
              (ls2): Identity()
              (drop_path2): Identity()
            )
            (attn_grid): PartitionAttentionCl(
              (norm1): LayerNorm((384,), eps=1e-05, elementwise_affine=True)
              (attn): AttentionCl(
                (qkv): Linear(in_features=384, out_features=1152, bias=True)
                (rel_pos): RelPosBiasTf()
                (attn_drop): Dropout(p=0.0, inplace=False)
                (proj): Linear(in_features=384, out_features=384, bias=True)
                (proj_drop): Dropout(p=0.0, inplace=False)
              )
              (ls1): Identity()
              (drop_path1): Identity()
              (norm2): LayerNorm((384,), eps=1e-05, elementwise_affine=True)
              (mlp): Mlp(
                (fc1): Linear(in_features=384, out_features=1536, bias=True)
                (act): GELUTanh()
                (drop1): Dropout(p=0.0, inplace=False)
                (norm): Identity()
                (fc2): Linear(in_features=1536, out_features=384, bias=True)
                (drop2): Dropout(p=0.0, inplace=False)
              )
              (ls2): Identity()
              (drop_path2): Identity()
            )
          )
          (1): MaxxVitBlock(
            (conv): MbConvBlock(
              (shortcut): Identity()
              (pre_norm): BatchNormAct2d(
                384, eps=0.001, momentum=0.1, affine=True, track_running_stats=True
                (drop): Identity()
                (act): Identity()
              )
              (down): Identity()
              (conv1_1x1): Conv2d(384, 1536, kernel_size=(1, 1), stride=(1, 1), bias=False)
              (norm1): BatchNormAct2d(
                1536, eps=0.001, momentum=0.1, affine=True, track_running_stats=True
                (drop): Identity()
                (act): GELUTanh()
              )
              (conv2_kxk): Conv2d(1536, 1536, kernel_size=(3, 3), stride=(1, 1), padding=(1, 1), groups=1536, bias=False)
              (norm2): BatchNormAct2d(
                1536, eps=0.001, momentum=0.1, affine=True, track_running_stats=True
                (drop): Identity()
                (act): GELUTanh()
              )
              (se): SEModule(
                (fc1): Conv2d(1536, 96, kernel_size=(1, 1), stride=(1, 1))
                (bn): Identity()
                (act): SiLU(inplace=True)
                (fc2): Conv2d(96, 1536, kernel_size=(1, 1), stride=(1, 1))
                (gate): Sigmoid()
              )
              (conv3_1x1): Conv2d(1536, 384, kernel_size=(1, 1), stride=(1, 1))
              (drop_path): Identity()
            )
            (attn_block): PartitionAttentionCl(
              (norm1): LayerNorm((384,), eps=1e-05, elementwise_affine=True)
              (attn): AttentionCl(
                (qkv): Linear(in_features=384, out_features=1152, bias=True)
                (rel_pos): RelPosBiasTf()
                (attn_drop): Dropout(p=0.0, inplace=False)
                (proj): Linear(in_features=384, out_features=384, bias=True)
                (proj_drop): Dropout(p=0.0, inplace=False)
              )
              (ls1): Identity()
              (drop_path1): Identity()
              (norm2): LayerNorm((384,), eps=1e-05, elementwise_affine=True)
              (mlp): Mlp(
                (fc1): Linear(in_features=384, out_features=1536, bias=True)
                (act): GELUTanh()
                (drop1): Dropout(p=0.0, inplace=False)
                (norm): Identity()
                (fc2): Linear(in_features=1536, out_features=384, bias=True)
                (drop2): Dropout(p=0.0, inplace=False)
              )
              (ls2): Identity()
              (drop_path2): Identity()
            )
            (attn_grid): PartitionAttentionCl(
              (norm1): LayerNorm((384,), eps=1e-05, elementwise_affine=True)
              (attn): AttentionCl(
                (qkv): Linear(in_features=384, out_features=1152, bias=True)
                (rel_pos): RelPosBiasTf()
                (attn_drop): Dropout(p=0.0, inplace=False)
                (proj): Linear(in_features=384, out_features=384, bias=True)
                (proj_drop): Dropout(p=0.0, inplace=False)
              )
              (ls1): Identity()
              (drop_path1): Identity()
              (norm2): LayerNorm((384,), eps=1e-05, elementwise_affine=True)
              (mlp): Mlp(
                (fc1): Linear(in_features=384, out_features=1536, bias=True)
                (act): GELUTanh()
                (drop1): Dropout(p=0.0, inplace=False)
                (norm): Identity()
                (fc2): Linear(in_features=1536, out_features=384, bias=True)
                (drop2): Dropout(p=0.0, inplace=False)
              )
              (ls2): Identity()
              (drop_path2): Identity()
            )
          )
          (2): MaxxVitBlock(
            (conv): MbConvBlock(
              (shortcut): Identity()
              (pre_norm): BatchNormAct2d(
                384, eps=0.001, momentum=0.1, affine=True, track_running_stats=True
                (drop): Identity()
                (act): Identity()
              )
              (down): Identity()
              (conv1_1x1): Conv2d(384, 1536, kernel_size=(1, 1), stride=(1, 1), bias=False)
              (norm1): BatchNormAct2d(
                1536, eps=0.001, momentum=0.1, affine=True, track_running_stats=True
                (drop): Identity()
                (act): GELUTanh()
              )
              (conv2_kxk): Conv2d(1536, 1536, kernel_size=(3, 3), stride=(1, 1), padding=(1, 1), groups=1536, bias=False)
              (norm2): BatchNormAct2d(
                1536, eps=0.001, momentum=0.1, affine=True, track_running_stats=True
                (drop): Identity()
                (act): GELUTanh()
              )
              (se): SEModule(
                (fc1): Conv2d(1536, 96, kernel_size=(1, 1), stride=(1, 1))
                (bn): Identity()
                (act): SiLU(inplace=True)
                (fc2): Conv2d(96, 1536, kernel_size=(1, 1), stride=(1, 1))
                (gate): Sigmoid()
              )
              (conv3_1x1): Conv2d(1536, 384, kernel_size=(1, 1), stride=(1, 1))
              (drop_path): Identity()
            )
            (attn_block): PartitionAttentionCl(
              (norm1): LayerNorm((384,), eps=1e-05, elementwise_affine=True)
              (attn): AttentionCl(
                (qkv): Linear(in_features=384, out_features=1152, bias=True)
                (rel_pos): RelPosBiasTf()
                (attn_drop): Dropout(p=0.0, inplace=False)
                (proj): Linear(in_features=384, out_features=384, bias=True)
                (proj_drop): Dropout(p=0.0, inplace=False)
              )
              (ls1): Identity()
              (drop_path1): Identity()
              (norm2): LayerNorm((384,), eps=1e-05, elementwise_affine=True)
              (mlp): Mlp(
                (fc1): Linear(in_features=384, out_features=1536, bias=True)
                (act): GELUTanh()
                (drop1): Dropout(p=0.0, inplace=False)
                (norm): Identity()
                (fc2): Linear(in_features=1536, out_features=384, bias=True)
                (drop2): Dropout(p=0.0, inplace=False)
              )
              (ls2): Identity()
              (drop_path2): Identity()
            )
            (attn_grid): PartitionAttentionCl(
              (norm1): LayerNorm((384,), eps=1e-05, elementwise_affine=True)
              (attn): AttentionCl(
                (qkv): Linear(in_features=384, out_features=1152, bias=True)
                (rel_pos): RelPosBiasTf()
                (attn_drop): Dropout(p=0.0, inplace=False)
                (proj): Linear(in_features=384, out_features=384, bias=True)
                (proj_drop): Dropout(p=0.0, inplace=False)
              )
              (ls1): Identity()
              (drop_path1): Identity()
              (norm2): LayerNorm((384,), eps=1e-05, elementwise_affine=True)
              (mlp): Mlp(
                (fc1): Linear(in_features=384, out_features=1536, bias=True)
                (act): GELUTanh()
                (drop1): Dropout(p=0.0, inplace=False)
                (norm): Identity()
                (fc2): Linear(in_features=1536, out_features=384, bias=True)
                (drop2): Dropout(p=0.0, inplace=False)
              )
              (ls2): Identity()
              (drop_path2): Identity()
            )
          )
          (3): MaxxVitBlock(
            (conv): MbConvBlock(
              (shortcut): Identity()
              (pre_norm): BatchNormAct2d(
                384, eps=0.001, momentum=0.1, affine=True, track_running_stats=True
                (drop): Identity()
                (act): Identity()
              )
              (down): Identity()
              (conv1_1x1): Conv2d(384, 1536, kernel_size=(1, 1), stride=(1, 1), bias=False)
              (norm1): BatchNormAct2d(
                1536, eps=0.001, momentum=0.1, affine=True, track_running_stats=True
                (drop): Identity()
                (act): GELUTanh()
              )
              (conv2_kxk): Conv2d(1536, 1536, kernel_size=(3, 3), stride=(1, 1), padding=(1, 1), groups=1536, bias=False)
              (norm2): BatchNormAct2d(
                1536, eps=0.001, momentum=0.1, affine=True, track_running_stats=True
                (drop): Identity()
                (act): GELUTanh()
              )
              (se): SEModule(
                (fc1): Conv2d(1536, 96, kernel_size=(1, 1), stride=(1, 1))
                (bn): Identity()
                (act): SiLU(inplace=True)
                (fc2): Conv2d(96, 1536, kernel_size=(1, 1), stride=(1, 1))
                (gate): Sigmoid()
              )
              (conv3_1x1): Conv2d(1536, 384, kernel_size=(1, 1), stride=(1, 1))
              (drop_path): Identity()
            )
            (attn_block): PartitionAttentionCl(
              (norm1): LayerNorm((384,), eps=1e-05, elementwise_affine=True)
              (attn): AttentionCl(
                (qkv): Linear(in_features=384, out_features=1152, bias=True)
                (rel_pos): RelPosBiasTf()
                (attn_drop): Dropout(p=0.0, inplace=False)
                (proj): Linear(in_features=384, out_features=384, bias=True)
                (proj_drop): Dropout(p=0.0, inplace=False)
              )
              (ls1): Identity()
              (drop_path1): Identity()
              (norm2): LayerNorm((384,), eps=1e-05, elementwise_affine=True)
              (mlp): Mlp(
                (fc1): Linear(in_features=384, out_features=1536, bias=True)
                (act): GELUTanh()
                (drop1): Dropout(p=0.0, inplace=False)
                (norm): Identity()
                (fc2): Linear(in_features=1536, out_features=384, bias=True)
                (drop2): Dropout(p=0.0, inplace=False)
              )
              (ls2): Identity()
              (drop_path2): Identity()
            )
            (attn_grid): PartitionAttentionCl(
              (norm1): LayerNorm((384,), eps=1e-05, elementwise_affine=True)
              (attn): AttentionCl(
                (qkv): Linear(in_features=384, out_features=1152, bias=True)
                (rel_pos): RelPosBiasTf()
                (attn_drop): Dropout(p=0.0, inplace=False)
                (proj): Linear(in_features=384, out_features=384, bias=True)
                (proj_drop): Dropout(p=0.0, inplace=False)
              )
              (ls1): Identity()
              (drop_path1): Identity()
              (norm2): LayerNorm((384,), eps=1e-05, elementwise_affine=True)
              (mlp): Mlp(
                (fc1): Linear(in_features=384, out_features=1536, bias=True)
                (act): GELUTanh()
                (drop1): Dropout(p=0.0, inplace=False)
                (norm): Identity()
                (fc2): Linear(in_features=1536, out_features=384, bias=True)
                (drop2): Dropout(p=0.0, inplace=False)
              )
              (ls2): Identity()
              (drop_path2): Identity()
            )
          )
          (4): MaxxVitBlock(
            (conv): MbConvBlock(
              (shortcut): Identity()
              (pre_norm): BatchNormAct2d(
                384, eps=0.001, momentum=0.1, affine=True, track_running_stats=True
                (drop): Identity()
                (act): Identity()
              )
              (down): Identity()
              (conv1_1x1): Conv2d(384, 1536, kernel_size=(1, 1), stride=(1, 1), bias=False)
              (norm1): BatchNormAct2d(
                1536, eps=0.001, momentum=0.1, affine=True, track_running_stats=True
                (drop): Identity()
                (act): GELUTanh()
              )
              (conv2_kxk): Conv2d(1536, 1536, kernel_size=(3, 3), stride=(1, 1), padding=(1, 1), groups=1536, bias=False)
              (norm2): BatchNormAct2d(
                1536, eps=0.001, momentum=0.1, affine=True, track_running_stats=True
                (drop): Identity()
                (act): GELUTanh()
              )
              (se): SEModule(
                (fc1): Conv2d(1536, 96, kernel_size=(1, 1), stride=(1, 1))
                (bn): Identity()
                (act): SiLU(inplace=True)
                (fc2): Conv2d(96, 1536, kernel_size=(1, 1), stride=(1, 1))
                (gate): Sigmoid()
              )
              (conv3_1x1): Conv2d(1536, 384, kernel_size=(1, 1), stride=(1, 1))
              (drop_path): Identity()
            )
            (attn_block): PartitionAttentionCl(
              (norm1): LayerNorm((384,), eps=1e-05, elementwise_affine=True)
              (attn): AttentionCl(
                (qkv): Linear(in_features=384, out_features=1152, bias=True)
                (rel_pos): RelPosBiasTf()
                (attn_drop): Dropout(p=0.0, inplace=False)
                (proj): Linear(in_features=384, out_features=384, bias=True)
                (proj_drop): Dropout(p=0.0, inplace=False)
              )
              (ls1): Identity()
              (drop_path1): Identity()
              (norm2): LayerNorm((384,), eps=1e-05, elementwise_affine=True)
              (mlp): Mlp(
                (fc1): Linear(in_features=384, out_features=1536, bias=True)
                (act): GELUTanh()
                (drop1): Dropout(p=0.0, inplace=False)
                (norm): Identity()
                (fc2): Linear(in_features=1536, out_features=384, bias=True)
                (drop2): Dropout(p=0.0, inplace=False)
              )
              (ls2): Identity()
              (drop_path2): Identity()
            )
            (attn_grid): PartitionAttentionCl(
              (norm1): LayerNorm((384,), eps=1e-05, elementwise_affine=True)
              (attn): AttentionCl(
                (qkv): Linear(in_features=384, out_features=1152, bias=True)
                (rel_pos): RelPosBiasTf()
                (attn_drop): Dropout(p=0.0, inplace=False)
                (proj): Linear(in_features=384, out_features=384, bias=True)
                (proj_drop): Dropout(p=0.0, inplace=False)
              )
              (ls1): Identity()
              (drop_path1): Identity()
              (norm2): LayerNorm((384,), eps=1e-05, elementwise_affine=True)
              (mlp): Mlp(
                (fc1): Linear(in_features=384, out_features=1536, bias=True)
                (act): GELUTanh()
                (drop1): Dropout(p=0.0, inplace=False)
                (norm): Identity()
                (fc2): Linear(in_features=1536, out_features=384, bias=True)
                (drop2): Dropout(p=0.0, inplace=False)
              )
              (ls2): Identity()
              (drop_path2): Identity()
            )
          )
        )
      )
      (3): MaxxVitStage(
        (blocks): Sequential(
          (0): MaxxVitBlock(
            (conv): MbConvBlock(
              (shortcut): Downsample2d(
                (pool): AvgPool2dSame(kernel_size=(2, 2), stride=(2, 2), padding=(0, 0))
                (expand): Conv2d(384, 768, kernel_size=(1, 1), stride=(1, 1))
              )
              (pre_norm): BatchNormAct2d(
                384, eps=0.001, momentum=0.1, affine=True, track_running_stats=True
                (drop): Identity()
                (act): Identity()
              )
              (down): Identity()
              (conv1_1x1): Conv2d(384, 3072, kernel_size=(1, 1), stride=(1, 1), bias=False)
              (norm1): BatchNormAct2d(
                3072, eps=0.001, momentum=0.1, affine=True, track_running_stats=True
                (drop): Identity()
                (act): GELUTanh()
              )
              (conv2_kxk): Conv2dSame(3072, 3072, kernel_size=(3, 3), stride=(2, 2), groups=3072, bias=False)
              (norm2): BatchNormAct2d(
                3072, eps=0.001, momentum=0.1, affine=True, track_running_stats=True
                (drop): Identity()
                (act): GELUTanh()
              )
              (se): SEModule(
                (fc1): Conv2d(3072, 192, kernel_size=(1, 1), stride=(1, 1))
                (bn): Identity()
                (act): SiLU(inplace=True)
                (fc2): Conv2d(192, 3072, kernel_size=(1, 1), stride=(1, 1))
                (gate): Sigmoid()
              )
              (conv3_1x1): Conv2d(3072, 768, kernel_size=(1, 1), stride=(1, 1))
              (drop_path): Identity()
            )
            (attn_block): PartitionAttentionCl(
              (norm1): LayerNorm((768,), eps=1e-05, elementwise_affine=True)
              (attn): AttentionCl(
                (qkv): Linear(in_features=768, out_features=2304, bias=True)
                (rel_pos): RelPosBiasTf()
                (attn_drop): Dropout(p=0.0, inplace=False)
                (proj): Linear(in_features=768, out_features=768, bias=True)
                (proj_drop): Dropout(p=0.0, inplace=False)
              )
              (ls1): Identity()
              (drop_path1): Identity()
              (norm2): LayerNorm((768,), eps=1e-05, elementwise_affine=True)
              (mlp): Mlp(
                (fc1): Linear(in_features=768, out_features=3072, bias=True)
                (act): GELUTanh()
                (drop1): Dropout(p=0.0, inplace=False)
                (norm): Identity()
                (fc2): Linear(in_features=3072, out_features=768, bias=True)
                (drop2): Dropout(p=0.0, inplace=False)
              )
              (ls2): Identity()
              (drop_path2): Identity()
            )
            (attn_grid): PartitionAttentionCl(
              (norm1): LayerNorm((768,), eps=1e-05, elementwise_affine=True)
              (attn): AttentionCl(
                (qkv): Linear(in_features=768, out_features=2304, bias=True)
                (rel_pos): RelPosBiasTf()
                (attn_drop): Dropout(p=0.0, inplace=False)
                (proj): Linear(in_features=768, out_features=768, bias=True)
                (proj_drop): Dropout(p=0.0, inplace=False)
              )
              (ls1): Identity()
              (drop_path1): Identity()
              (norm2): LayerNorm((768,), eps=1e-05, elementwise_affine=True)
              (mlp): Mlp(
                (fc1): Linear(in_features=768, out_features=3072, bias=True)
                (act): GELUTanh()
                (drop1): Dropout(p=0.0, inplace=False)
                (norm): Identity()
                (fc2): Linear(in_features=3072, out_features=768, bias=True)
                (drop2): Dropout(p=0.0, inplace=False)
              )
              (ls2): Identity()
              (drop_path2): Identity()
            )
          )
          (1): MaxxVitBlock(
            (conv): MbConvBlock(
              (shortcut): Identity()
              (pre_norm): BatchNormAct2d(
                768, eps=0.001, momentum=0.1, affine=True, track_running_stats=True
                (drop): Identity()
                (act): Identity()
              )
              (down): Identity()
              (conv1_1x1): Conv2d(768, 3072, kernel_size=(1, 1), stride=(1, 1), bias=False)
              (norm1): BatchNormAct2d(
                3072, eps=0.001, momentum=0.1, affine=True, track_running_stats=True
                (drop): Identity()
                (act): GELUTanh()
              )
              (conv2_kxk): Conv2d(3072, 3072, kernel_size=(3, 3), stride=(1, 1), padding=(1, 1), groups=3072, bias=False)
              (norm2): BatchNormAct2d(
                3072, eps=0.001, momentum=0.1, affine=True, track_running_stats=True
                (drop): Identity()
                (act): GELUTanh()
              )
              (se): SEModule(
                (fc1): Conv2d(3072, 192, kernel_size=(1, 1), stride=(1, 1))
                (bn): Identity()
                (act): SiLU(inplace=True)
                (fc2): Conv2d(192, 3072, kernel_size=(1, 1), stride=(1, 1))
                (gate): Sigmoid()
              )
              (conv3_1x1): Conv2d(3072, 768, kernel_size=(1, 1), stride=(1, 1))
              (drop_path): Identity()
            )
            (attn_block): PartitionAttentionCl(
              (norm1): LayerNorm((768,), eps=1e-05, elementwise_affine=True)
              (attn): AttentionCl(
                (qkv): Linear(in_features=768, out_features=2304, bias=True)
                (rel_pos): RelPosBiasTf()
                (attn_drop): Dropout(p=0.0, inplace=False)
                (proj): Linear(in_features=768, out_features=768, bias=True)
                (proj_drop): Dropout(p=0.0, inplace=False)
              )
              (ls1): Identity()
              (drop_path1): Identity()
              (norm2): LayerNorm((768,), eps=1e-05, elementwise_affine=True)
              (mlp): Mlp(
                (fc1): Linear(in_features=768, out_features=3072, bias=True)
                (act): GELUTanh()
                (drop1): Dropout(p=0.0, inplace=False)
                (norm): Identity()
                (fc2): Linear(in_features=3072, out_features=768, bias=True)
                (drop2): Dropout(p=0.0, inplace=False)
              )
              (ls2): Identity()
              (drop_path2): Identity()
            )
            (attn_grid): PartitionAttentionCl(
              (norm1): LayerNorm((768,), eps=1e-05, elementwise_affine=True)
              (attn): AttentionCl(
                (qkv): Linear(in_features=768, out_features=2304, bias=True)
                (rel_pos): RelPosBiasTf()
                (attn_drop): Dropout(p=0.0, inplace=False)
                (proj): Linear(in_features=768, out_features=768, bias=True)
                (proj_drop): Dropout(p=0.0, inplace=False)
              )
              (ls1): Identity()
              (drop_path1): Identity()
              (norm2): LayerNorm((768,), eps=1e-05, elementwise_affine=True)
              (mlp): Mlp(
                (fc1): Linear(in_features=768, out_features=3072, bias=True)
                (act): GELUTanh()
                (drop1): Dropout(p=0.0, inplace=False)
                (norm): Identity()
                (fc2): Linear(in_features=3072, out_features=768, bias=True)
                (drop2): Dropout(p=0.0, inplace=False)
              )
              (ls2): Identity()
              (drop_path2): Identity()
            )
          )
        )
      )
    )
    (norm): Identity()
    (head): NormMlpClassifierHead(
      (global_pool): SelectAdaptivePool2d (pool_type=avg, flatten=Identity())
      (norm): LayerNorm2d((768,), eps=1e-05, elementwise_affine=True)
      (flatten): Flatten(start_dim=1, end_dim=-1)
      (pre_logits): Sequential(
        (fc): Linear(in_features=768, out_features=768, bias=True)
        (act): Tanh()
      )
      (drop): Dropout(p=0.0, inplace=False)
      (fc): Identity()
    )
  )
  (heads): ModuleList(
    (0-13): 14 x Linear(in_features=768, out_features=384, bias=True)
  )
  (heads2): ModuleList(
    (0-13): 14 x Linear(in_features=384, out_features=48, bias=True)
  )
  (heads3): ModuleList(
    (0-13): 14 x Linear(in_features=48, out_features=48, bias=True)
…
